…
I0824 02:02:46.416342 115696 net.cpp:298] The NetState phase (0) differed from the phase (1) specified by a rule in layer resnet-18
I0824 02:02:46.416441 115696 net.cpp:55] Initializing net from parameters: 
name: "resnet18-cifar10"
state {
  phase: TRAIN
  level: 0
  stage: ""
}
layer {
  name: "resnet-18"
  type: "Data"
  top: "data"
  top: "label"
  include {
    phase: TRAIN
  }
  transform_param {
    scale: 0.0078125
    mean_value: 128
  }
  data_param {
    source: "examples/cifar10/cifar10_train_lmdb"
    batch_size: 64
    backend: LMDB
  }
}
layer {
  name: "first_conv"
  type: "Convolution"
  bottom: "data"
  top: "first_conv"
  param {
    lr_mult: 1
    decay_mult: 1
  }
  aicorekernel {
    kernelfile: "conv_fw_op_64_3_16_32_32_nobias_3_3_1_1_1_1.o"
    kernelname: "conv_fw_op_64_3_16_32_32_nobias_3_3_1_1_1_1__kernel0"
    block_num: 2
  }
  aicorekernel {
    kernelfile: "conv_bw_weight_op_64_3_16_32_32_3_3_1_1_1_1.o"
    kernelname: "conv_bw_weight_op_64_3_16_32_32_3_3_1_1_1_1__kernel0"
    block_num: 16
  }
  aicorekernel {
    kernelfile: "conv_bw_input_op_64_3_16_32_32_3_3_1_1_1_1.o"
    kernelname: "conv_bw_input_op_64_3_16_32_32_3_3_1_1_1_1__kernel0"
    block_num: 2
  }
  convolution_param {
    num_output: 16
    bias_term: false
    pad: 1
    kernel_size: 3
    stride: 1
    weight_filler {
      type: "msra"
    }
  }
}
layer {
  type: "FourFive"
  bottom: "first_conv"
  top: "first_conv_debug_auto_in"
  fourfive_param {
    four2five: true
  }
}
layer {
  name: "first_conv_bn"
  type: "BatchNorm"
  bottom: "first_conv_debug_auto_in"
  top: "first_conv_debug_auto_in"
  scale_param {
    bias_term: true
  }
}
layer {
  type: "FourFive"
  bottom: "first_conv_debug_auto_in"
  top: "first_conv_debug_auto_out"
  fourfive_param {
    four2five: false
    channels: 16
  }
}
layer {
  name: "first_conv_relu"
  type: "ReLU"
  bottom: "first_conv_debug_auto_out"
  top: "first_conv_debug_auto_out"
}
layer {
  name: "group0_block0_conv0"
  type: "Convolution"
  bottom: "first_conv_debug_auto_out"
  top: "group0_block0_conv0"
  param {
    lr_mult: 1
    decay_mult: 1
  }
  aicorekernel {
    kernelfile: "conv_fw_op_64_16_16_32_32_nobias_3_3_1_1_1_1.o"
    kernelname: "conv_fw_op_64_16_16_32_32_nobias_3_3_1_1_1_1__kernel0"
    block_num: 2
  }
  aicorekernel {
    kernelfile: "conv_bw_weight_op_64_16_16_32_32_3_3_1_1_1_1.o"
    kernelname: "conv_bw_weight_op_64_16_16_32_32_3_3_1_1_1_1__kernel0"
    block_num: 16
  }
  aicorekernel {
    kernelfile: "conv_bw_input_op_64_16_16_32_32_3_3_1_1_1_1.o"
    kernelname: "conv_bw_input_op_64_16_16_32_32_3_3_1_1_1_1__kernel0"
    block_num: 2
  }
  convolution_param {
    num_output: 16
    bias_term: false
    pad: 1
    kernel_size: 3
    stride: 1
    weight_filler {
      type: "msra"
    }
  }
}
layer {
  type: "FourFive"
  bottom: "group0_block0_conv0"
  top: "group0_block0_conv0_debug_auto_in"
  fourfive_param {
    four2five: true
  }
}
layer {
  name: "group0_block0_conv0_bn"
  type: "BatchNorm"
  bottom: "group0_block0_conv0_debug_auto_in"
  top: "group0_block0_conv0_debug_auto_in"
  scale_param {
    bias_term: true
  }
}
layer {
  type: "FourFive"
  bottom: "group0_block0_conv0_debug_auto_in"
  top: "group0_block0_conv0_debug_auto_out"
  fourfive_param {
    four2five: false
    channels: 16
  }
}
layer {
  name: "group0_block0_conv0_relu"
  type: "ReLU"
  bottom: "group0_block0_conv0_debug_auto_out"
  top: "group0_block0_conv0_debug_auto_out"
}
layer {
  name: "group0_block0_conv1"
  type: "Convolution"
  bottom: "group0_block0_conv0_debug_auto_out"
  top: "group0_block0_conv1"
  param {
    lr_mult: 1
    decay_mult: 1
  }
  aicorekernel {
    kernelfile: "conv_fw_op_64_16_16_32_32_nobias_3_3_1_1_1_1.o"
    kernelname: "conv_fw_op_64_16_16_32_32_nobias_3_3_1_1_1_1__kernel0"
    block_num: 2
  }
  aicorekernel {
    kernelfile: "conv_bw_weight_op_64_16_16_32_32_3_3_1_1_1_1.o"
    kernelname: "conv_bw_weight_op_64_16_16_32_32_3_3_1_1_1_1__kernel0"
    block_num: 16
  }
  aicorekernel {
    kernelfile: "conv_bw_input_op_64_16_16_32_32_3_3_1_1_1_1.o"
    kernelname: "conv_bw_input_op_64_16_16_32_32_3_3_1_1_1_1__kernel0"
    block_num: 2
  }
  convolution_param {
    num_output: 16
    bias_term: false
    pad: 1
    kernel_size: 3
    stride: 1
    weight_filler {
      type: "msra"
    }
  }
}
layer {
  type: "FourFive"
  bottom: "group0_block0_conv1"
  top: "group0_block0_conv1_debug_auto_in"
  fourfive_param {
    four2five: true
  }
}
layer {
  name: "group0_block0_conv1_bn"
  type: "BatchNorm"
  bottom: "group0_block0_conv1_debug_auto_in"
  top: "group0_block0_conv1_debug_auto_in"
  scale_param {
    bias_term: true
  }
}
layer {
  type: "FourFive"
  bottom: "group0_block0_conv1_debug_auto_in"
  top: "group0_block0_conv1_debug_auto_out"
  fourfive_param {
    four2five: false
    channels: 16
  }
}
layer {
  name: "group0_block0_sum"
  type: "Eltwise"
  bottom: "group0_block0_conv1_debug_auto_out"
  bottom: "first_conv_debug_auto_out"
  top: "group0_block0_sum"
  eltwise_param {
    operation: SUM
  }
}
layer {
  name: "group0_block0_relu"
  type: "ReLU"
  bottom: "group0_block0_sum"
  top: "group0_block0_sum"
}
layer {
  name: "group0_block1_conv0"
  type: "Convolution"
  bottom: "group0_block0_sum"
  top: "group0_block1_conv0"
  param {
    lr_mult: 1
    decay_mult: 1
  }
  aicorekernel {
    kernelfile: "conv_fw_op_64_16_16_32_32_nobias_3_3_1_1_1_1.o"
    kernelname: "conv_fw_op_64_16_16_32_32_nobias_3_3_1_1_1_1__kernel0"
    block_num: 2
  }
  aicorekernel {
    kernelfile: "conv_bw_weight_op_64_16_16_32_32_3_3_1_1_1_1.o"
    kernelname: "conv_bw_weight_op_64_16_16_32_32_3_3_1_1_1_1__kernel0"
    block_num: 16
  }
  aicorekernel {
    kernelfile: "conv_bw_input_op_64_16_16_32_32_3_3_1_1_1_1.o"
    kernelname: "conv_bw_input_op_64_16_16_32_32_3_3_1_1_1_1__kernel0"
    block_num: 2
  }
  convolution_param {
    num_output: 16
    bias_term: false
    pad: 1
    kernel_size: 3
    stride: 1
    weight_filler {
      type: "msra"
    }
  }
}
layer {
  type: "FourFive"
  bottom: "group0_block1_conv0"
  top: "group0_block1_conv0_debug_auto_in"
  fourfive_param {
    four2five: true
  }
}
layer {
  name: "group0_block1_conv0_bn"
  type: "BatchNorm"
  bottom: "group0_block1_conv0_debug_auto_in"
  top: "group0_block1_conv0_debug_auto_in"
  scale_param {
    bias_term: true
  }
}
layer {
  type: "FourFive"
  bottom: "group0_block1_conv0_debug_auto_in"
  top: "group0_block1_conv0_debug_auto_out"
  fourfive_param {
    four2five: false
    channels: 16
  }
}
layer {
  name: "group0_block1_conv0_relu"
  type: "ReLU"
  bottom: "group0_block1_conv0_debug_auto_out"
  top: "group0_block1_conv0_debug_auto_out"
}
layer {
  name: "group0_block1_conv1"
  type: "Convolution"
  bottom: "group0_block1_conv0_debug_auto_out"
  top: "group0_block1_conv1"
  param {
    lr_mult: 1
    decay_mult: 1
  }
  aicorekernel {
    kernelfile: "conv_fw_op_64_16_16_32_32_nobias_3_3_1_1_1_1.o"
    kernelname: "conv_fw_op_64_16_16_32_32_nobias_3_3_1_1_1_1__kernel0"
    block_num: 2
  }
  aicorekernel {
    kernelfile: "conv_bw_weight_op_64_16_16_32_32_3_3_1_1_1_1.o"
    kernelname: "conv_bw_weight_op_64_16_16_32_32_3_3_1_1_1_1__kernel0"
    block_num: 16
  }
  aicorekernel {
    kernelfile: "conv_bw_input_op_64_16_16_32_32_3_3_1_1_1_1.o"
    kernelname: "conv_bw_input_op_64_16_16_32_32_3_3_1_1_1_1__kernel0"
    block_num: 2
  }
  convolution_param {
    num_output: 16
    bias_term: false
    pad: 1
    kernel_size: 3
    stride: 1
    weight_filler {
      type: "msra"
    }
  }
}
layer {
  type: "FourFive"
  bottom: "group0_block1_conv1"
  top: "group0_block1_conv1_debug_auto_in"
  fourfive_param {
    four2five: true
  }
}
layer {
  name: "group0_block1_conv1_bn"
  type: "BatchNorm"
  bottom: "group0_block1_conv1_debug_auto_in"
  top: "group0_block1_conv1_debug_auto_in"
  scale_param {
    bias_term: true
  }
}
layer {
  type: "FourFive"
  bottom: "group0_block1_conv1_debug_auto_in"
  top: "group0_block1_conv1_debug_auto_out"
  fourfive_param {
    four2five: false
    channels: 16
  }
}
layer {
  name: "group0_block1_sum"
  type: "Eltwise"
  bottom: "group0_block1_conv1_debug_auto_out"
  bottom: "group0_block0_sum"
  top: "group0_block1_sum"
  eltwise_param {
    operation: SUM
  }
}
layer {
  name: "group0_block1_relu"
  type: "ReLU"
  bottom: "group0_block1_sum"
  top: "group0_block1_sum"
}
layer {
  name: "group0_block2_conv0"
  type: "Convolution"
  bottom: "group0_block1_sum"
  top: "group0_block2_conv0"
  param {
    lr_mult: 1
    decay_mult: 1
  }
  aicorekernel {
    kernelfile: "conv_fw_op_64_16_16_32_32_nobias_3_3_1_1_1_1.o"
    kernelname: "conv_fw_op_64_16_16_32_32_nobias_3_3_1_1_1_1__kernel0"
    block_num: 2
  }
  aicorekernel {
    kernelfile: "conv_bw_weight_op_64_16_16_32_32_3_3_1_1_1_1.o"
    kernelname: "conv_bw_weight_op_64_16_16_32_32_3_3_1_1_1_1__kernel0"
    block_num: 16
  }
  aicorekernel {
    kernelfile: "conv_bw_input_op_64_16_16_32_32_3_3_1_1_1_1.o"
    kernelname: "conv_bw_input_op_64_16_16_32_32_3_3_1_1_1_1__kernel0"
    block_num: 2
  }
  convolution_param {
    num_output: 16
    bias_term: false
    pad: 1
    kernel_size: 3
    stride: 1
    weight_filler {
      type: "msra"
    }
  }
}
layer {
  type: "FourFive"
  bottom: "group0_block2_conv0"
  top: "group0_block2_conv0_debug_auto_in"
  fourfive_param {
    four2five: true
  }
}
layer {
  name: "group0_block2_conv0_bn"
  type: "BatchNorm"
  bottom: "group0_block2_conv0_debug_auto_in"
  top: "group0_block2_conv0_debug_auto_in"
  scale_param {
    bias_term: true
  }
}
layer {
  type: "FourFive"
  bottom: "group0_block2_conv0_debug_auto_in"
  top: "group0_block2_conv0_debug_auto_out"
  fourfive_param {
    four2five: false
    channels: 16
  }
}
layer {
  name: "group0_block2_conv0_relu"
  type: "ReLU"
  bottom: "group0_block2_conv0_debug_auto_out"
  top: "group0_block2_conv0_debug_auto_out"
}
layer {
  name: "group0_block2_conv1"
  type: "Convolution"
  bottom: "group0_block2_conv0_debug_auto_out"
  top: "group0_block2_conv1"
  param {
    lr_mult: 1
    decay_mult: 1
  }
  aicorekernel {
    kernelfile: "conv_fw_op_64_16_16_32_32_nobias_3_3_1_1_1_1.o"
    kernelname: "conv_fw_op_64_16_16_32_32_nobias_3_3_1_1_1_1__kernel0"
    block_num: 2
  }
  aicorekernel {
    kernelfile: "conv_bw_weight_op_64_16_16_32_32_3_3_1_1_1_1.o"
    kernelname: "conv_bw_weight_op_64_16_16_32_32_3_3_1_1_1_1__kernel0"
    block_num: 16
  }
  aicorekernel {
    kernelfile: "conv_bw_input_op_64_16_16_32_32_3_3_1_1_1_1.o"
    kernelname: "conv_bw_input_op_64_16_16_32_32_3_3_1_1_1_1__kernel0"
    block_num: 2
  }
  convolution_param {
    num_output: 16
    bias_term: false
    pad: 1
    kernel_size: 3
    stride: 1
    weight_filler {
      type: "msra"
    }
  }
}
layer {
  type: "FourFive"
  bottom: "group0_block2_conv1"
  top: "group0_block2_conv1_debug_auto_in"
  fourfive_param {
    four2five: true
  }
}
layer {
  name: "group0_block2_conv1_bn"
  type: "BatchNorm"
  bottom: "group0_block2_conv1_debug_auto_in"
  top: "group0_block2_conv1_debug_auto_in"
  scale_param {
    bias_term: true
  }
}
layer {
  type: "FourFive"
  bottom: "group0_block2_conv1_debug_auto_in"
  top: "group0_block2_conv1_debug_auto_out"
  fourfive_param {
    four2five: false
    channels: 16
  }
}
layer {
  name: "group0_block2_sum"
  type: "Eltwise"
  bottom: "group0_block2_conv1_debug_auto_out"
  bottom: "group0_block1_sum"
  top: "group0_block2_sum"
  eltwise_param {
    operation: SUM
  }
}
layer {
  name: "group0_block2_relu"
  type: "ReLU"
  bottom: "group0_block2_sum"
  top: "group0_block2_sum"
}
layer {
  name: "group1_block0_conv0"
  type: "Convolution"
  bottom: "group0_block2_sum"
  top: "group1_block0_conv0"
  param {
    lr_mult: 1
    decay_mult: 1
  }
  aicorekernel {
    kernelfile: "conv_fw_op_64_16_32_32_32_nobias_3_3_1_1_2_2.o"
    kernelname: "conv_fw_op_64_16_32_32_32_nobias_3_3_1_1_2_2__kernel0"
    block_num: 2
  }
  aicorekernel {
    kernelfile: "conv_bw_weight_op_64_16_32_32_32_3_3_1_1_2_2.o"
    kernelname: "conv_bw_weight_op_64_16_32_32_32_3_3_1_1_2_2__kernel0"
    block_num: 8
  }
  aicorekernel {
    kernelfile: "conv_bw_input_op_64_16_32_32_32_3_3_1_1_2_2.o"
    kernelname: "conv_bw_input_op_64_16_32_32_32_3_3_1_1_2_2__kernel0"
    block_num: 2
  }
  convolution_param {
    num_output: 32
    bias_term: false
    pad: 1
    kernel_size: 3
    stride: 2
    weight_filler {
      type: "msra"
    }
  }
}
layer {
  type: "FourFive"
  bottom: "group1_block0_conv0"
  top: "group1_block0_conv0_debug_auto_in"
  fourfive_param {
    four2five: true
  }
}
layer {
  name: "group1_block0_conv0_bn"
  type: "BatchNorm"
  bottom: "group1_block0_conv0_debug_auto_in"
  top: "group1_block0_conv0_debug_auto_in"
  scale_param {
    bias_term: true
  }
}
layer {
  type: "FourFive"
  bottom: "group1_block0_conv0_debug_auto_in"
  top: "group1_block0_conv0_debug_auto_out"
  fourfive_param {
    four2five: false
    channels: 32
  }
}
layer {
  name: "group1_block0_conv0_relu"
  type: "ReLU"
  bottom: "group1_block0_conv0_debug_auto_out"
  top: "group1_block0_conv0_debug_auto_out"
}
layer {
  name: "group1_block0_conv1"
  type: "Convolution"
  bottom: "group1_block0_conv0_debug_auto_out"
  top: "group1_block0_conv1"
  param {
    lr_mult: 1
    decay_mult: 1
  }
  aicorekernel {
    kernelfile: "conv_fw_op_64_32_32_16_16_nobias_3_3_1_1_1_1.o"
    kernelname: "conv_fw_op_64_32_32_16_16_nobias_3_3_1_1_1_1__kernel0"
    block_num: 2
  }
  aicorekernel {
    kernelfile: "conv_bw_weight_op_64_32_32_16_16_3_3_1_1_1_1.o"
    kernelname: "conv_bw_weight_op_64_32_32_16_16_3_3_1_1_1_1__kernel0"
    block_num: 16
  }
  aicorekernel {
    kernelfile: "conv_bw_input_op_64_32_32_16_16_3_3_1_1_1_1.o"
    kernelname: "conv_bw_input_op_64_32_32_16_16_3_3_1_1_1_1__kernel0"
    block_num: 2
  }
  convolution_param {
    num_output: 32
    bias_term: false
    pad: 1
    kernel_size: 3
    stride: 1
    weight_filler {
      type: "msra"
    }
  }
}
layer {
  type: "FourFive"
  bottom: "group1_block0_conv1"
  top: "group1_block0_conv1_debug_auto_in"
  fourfive_param {
    four2five: true
  }
}
layer {
  name: "group1_block0_conv1_bn"
  type: "BatchNorm"
  bottom: "group1_block0_conv1_debug_auto_in"
  top: "group1_block0_conv1_debug_auto_in"
  scale_param {
    bias_term: true
  }
}
layer {
  type: "FourFive"
  bottom: "group1_block0_conv1_debug_auto_in"
  top: "group1_block0_conv1_debug_auto_out"
  fourfive_param {
    four2five: false
    channels: 32
  }
}
layer {
  name: "group1_block0_proj"
  type: "Convolution"
  bottom: "group0_block2_sum"
  top: "group1_block0_proj"
  param {
    lr_mult: 1
    decay_mult: 1
  }
  aicorekernel {
    kernelfile: "conv_fw_op_64_16_32_32_32_nobias_1_1_0_0_2_2.o"
    kernelname: "conv_fw_op_64_16_32_32_32_nobias_1_1_0_0_2_2__kernel0"
    block_num: 2
  }
  aicorekernel {
    kernelfile: "conv_bw_weight_op_64_16_32_32_32_1_1_0_0_2_2.o"
    kernelname: "conv_bw_weight_op_64_16_32_32_32_1_1_0_0_2_2__kernel0"
    block_num: 8
  }
  aicorekernel {
    kernelfile: "conv_bw_input_op_64_16_32_32_32_1_1_0_0_2_2.o"
    kernelname: "conv_bw_input_op_64_16_32_32_32_1_1_0_0_2_2__kernel0"
    block_num: 2
  }
  convolution_param {
    num_output: 32
    bias_term: false
    pad: 0
    kernel_size: 1
    stride: 2
    weight_filler {
      type: "msra"
    }
  }
}
layer {
  type: "FourFive"
  bottom: "group1_block0_proj"
  top: "group1_block0_proj_debug_auto_in"
  fourfive_param {
    four2five: true
  }
}
layer {
  name: "group1_block0_proj_bn"
  type: "BatchNorm"
  bottom: "group1_block0_proj_debug_auto_in"
  top: "group1_block0_proj_debug_auto_in"
  scale_param {
    bias_term: true
  }
}
layer {
  type: "FourFive"
  bottom: "group1_block0_proj_debug_auto_in"
  top: "group1_block0_proj_debug_auto_out"
  fourfive_param {
    four2five: false
    channels: 32
  }
}
layer {
  name: "group1_block0_sum"
  type: "Eltwise"
  bottom: "group1_block0_proj_debug_auto_out"
  bottom: "group1_block0_conv1_debug_auto_out"
  top: "group1_block0_sum"
  eltwise_param {
    operation: SUM
  }
}
layer {
  name: "group1_block0_relu"
  type: "ReLU"
  bottom: "group1_block0_sum"
  top: "group1_block0_sum"
}
layer {
  name: "group1_block1_conv0"
  type: "Convolution"
  bottom: "group1_block0_sum"
  top: "group1_block1_conv0"
  param {
    lr_mult: 1
    decay_mult: 1
  }
  aicorekernel {
    kernelfile: "conv_fw_op_64_32_32_16_16_nobias_3_3_1_1_1_1.o"
    kernelname: "conv_fw_op_64_32_32_16_16_nobias_3_3_1_1_1_1__kernel0"
    block_num: 2
  }
  aicorekernel {
    kernelfile: "conv_bw_weight_op_64_32_32_16_16_3_3_1_1_1_1.o"
    kernelname: "conv_bw_weight_op_64_32_32_16_16_3_3_1_1_1_1__kernel0"
    block_num: 16
  }
  aicorekernel {
    kernelfile: "conv_bw_input_op_64_32_32_16_16_3_3_1_1_1_1.o"
    kernelname: "conv_bw_input_op_64_32_32_16_16_3_3_1_1_1_1__kernel0"
    block_num: 2
  }
  convolution_param {
    num_output: 32
    bias_term: false
    pad: 1
    kernel_size: 3
    stride: 1
    weight_filler {
      type: "msra"
    }
  }
}
layer {
  type: "FourFive"
  bottom: "group1_block1_conv0"
  top: "group1_block1_conv0_debug_auto_in"
  fourfive_param {
    four2five: true
  }
}
layer {
  name: "group1_block1_conv0_bn"
  type: "BatchNorm"
  bottom: "group1_block1_conv0_debug_auto_in"
  top: "group1_block1_conv0_debug_auto_in"
  scale_param {
    bias_term: true
  }
}
layer {
  type: "FourFive"
  bottom: "group1_block1_conv0_debug_auto_in"
  top: "group1_block1_conv0_debug_auto_out"
  fourfive_param {
    four2five: false
    channels: 32
  }
}
layer {
  name: "group1_block1_conv0_relu"
  type: "ReLU"
  bottom: "group1_block1_conv0_debug_auto_out"
  top: "group1_block1_conv0_debug_auto_out"
}
layer {
  name: "group1_block1_conv1"
  type: "Convolution"
  bottom: "group1_block1_conv0_debug_auto_out"
  top: "group1_block1_conv1"
  param {
    lr_mult: 1
    decay_mult: 1
  }
  aicorekernel {
    kernelfile: "conv_fw_op_64_32_32_16_16_nobias_3_3_1_1_1_1.o"
    kernelname: "conv_fw_op_64_32_32_16_16_nobias_3_3_1_1_1_1__kernel0"
    block_num: 2
  }
  aicorekernel {
    kernelfile: "conv_bw_weight_op_64_32_32_16_16_3_3_1_1_1_1.o"
    kernelname: "conv_bw_weight_op_64_32_32_16_16_3_3_1_1_1_1__kernel0"
    block_num: 16
  }
  aicorekernel {
    kernelfile: "conv_bw_input_op_64_32_32_16_16_3_3_1_1_1_1.o"
    kernelname: "conv_bw_input_op_64_32_32_16_16_3_3_1_1_1_1__kernel0"
    block_num: 2
  }
  convolution_param {
    num_output: 32
    bias_term: false
    pad: 1
    kernel_size: 3
    stride: 1
    weight_filler {
      type: "msra"
    }
  }
}
layer {
  type: "FourFive"
  bottom: "group1_block1_conv1"
  top: "group1_block1_conv1_debug_auto_in"
  fourfive_param {
    four2five: true
  }
}
layer {
  name: "group1_block1_conv1_bn"
  type: "BatchNorm"
  bottom: "group1_block1_conv1_debug_auto_in"
  top: "group1_block1_conv1_debug_auto_in"
  scale_param {
    bias_term: true
  }
}
layer {
  type: "FourFive"
  bottom: "group1_block1_conv1_debug_auto_in"
  top: "group1_block1_conv1_debug_auto_out"
  fourfive_param {
    four2five: false
    channels: 32
  }
}
layer {
  name: "group1_block1_sum"
  type: "Eltwise"
  bottom: "group1_block1_conv1_debug_auto_out"
  bottom: "group1_block0_sum"
  top: "group1_block1_sum"
  eltwise_param {
    operation: SUM
  }
}
layer {
  name: "group1_block1_relu"
  type: "ReLU"
  bottom: "group1_block1_sum"
  top: "group1_block1_sum"
}
layer {
  name: "group1_block2_conv0"
  type: "Convolution"
  bottom: "group1_block1_sum"
  top: "group1_block2_conv0"
  param {
    lr_mult: 1
    decay_mult: 1
  }
  aicorekernel {
    kernelfile: "conv_fw_op_64_32_32_16_16_nobias_3_3_1_1_1_1.o"
    kernelname: "conv_fw_op_64_32_32_16_16_nobias_3_3_1_1_1_1__kernel0"
    block_num: 2
  }
  aicorekernel {
    kernelfile: "conv_bw_weight_op_64_32_32_16_16_3_3_1_1_1_1.o"
    kernelname: "conv_bw_weight_op_64_32_32_16_16_3_3_1_1_1_1__kernel0"
    block_num: 16
  }
  aicorekernel {
    kernelfile: "conv_bw_input_op_64_32_32_16_16_3_3_1_1_1_1.o"
    kernelname: "conv_bw_input_op_64_32_32_16_16_3_3_1_1_1_1__kernel0"
    block_num: 2
  }
  convolution_param {
    num_output: 32
    bias_term: false
    pad: 1
    kernel_size: 3
    stride: 1
    weight_filler {
      type: "msra"
    }
  }
}
layer {
  type: "FourFive"
  bottom: "group1_block2_conv0"
  top: "group1_block2_conv0_debug_auto_in"
  fourfive_param {
    four2five: true
  }
}
layer {
  name: "group1_block2_conv0_bn"
  type: "BatchNorm"
  bottom: "group1_block2_conv0_debug_auto_in"
  top: "group1_block2_conv0_debug_auto_in"
  scale_param {
    bias_term: true
  }
}
layer {
  type: "FourFive"
  bottom: "group1_block2_conv0_debug_auto_in"
  top: "group1_block2_conv0_debug_auto_out"
  fourfive_param {
    four2five: false
    channels: 32
  }
}
layer {
  name: "group1_block2_conv0_relu"
  type: "ReLU"
  bottom: "group1_block2_conv0_debug_auto_out"
  top: "group1_block2_conv0_debug_auto_out"
}
layer {
  name: "group1_block2_conv1"
  type: "Convolution"
  bottom: "group1_block2_conv0_debug_auto_out"
  top: "group1_block2_conv1"
  param {
    lr_mult: 1
    decay_mult: 1
  }
  aicorekernel {
    kernelfile: "conv_fw_op_64_32_32_16_16_nobias_3_3_1_1_1_1.o"
    kernelname: "conv_fw_op_64_32_32_16_16_nobias_3_3_1_1_1_1__kernel0"
    block_num: 2
  }
  aicorekernel {
    kernelfile: "conv_bw_weight_op_64_32_32_16_16_3_3_1_1_1_1.o"
    kernelname: "conv_bw_weight_op_64_32_32_16_16_3_3_1_1_1_1__kernel0"
    block_num: 16
  }
  aicorekernel {
    kernelfile: "conv_bw_input_op_64_32_32_16_16_3_3_1_1_1_1.o"
    kernelname: "conv_bw_input_op_64_32_32_16_16_3_3_1_1_1_1__kernel0"
    block_num: 2
  }
  convolution_param {
    num_output: 32
    bias_term: false
    pad: 1
    kernel_size: 3
    stride: 1
    weight_filler {
      type: "msra"
    }
  }
}
layer {
  type: "FourFive"
  bottom: "group1_block2_conv1"
  top: "group1_block2_conv1_debug_auto_in"
  fourfive_param {
    four2five: true
  }
}
layer {
  name: "group1_block2_conv1_bn"
  type: "BatchNorm"
  bottom: "group1_block2_conv1_debug_auto_in"
  top: "group1_block2_conv1_debug_auto_in"
  scale_param {
    bias_term: true
  }
}
layer {
  type: "FourFive"
  bottom: "group1_block2_conv1_debug_auto_in"
  top: "group1_block2_conv1_debug_auto_out"
  fourfive_param {
    four2five: false
    channels: 32
  }
}
layer {
  name: "group1_block2_sum"
  type: "Eltwise"
  bottom: "group1_block2_conv1_debug_auto_out"
  bottom: "group1_block1_sum"
  top: "group1_block2_sum"
  eltwise_param {
    operation: SUM
  }
}
layer {
  name: "group1_block2_relu"
  type: "ReLU"
  bottom: "group1_block2_sum"
  top: "group1_block2_sum"
}
layer {
  name: "group2_block0_conv0"
  type: "Convolution"
  bottom: "group1_block2_sum"
  top: "group2_block0_conv0"
  param {
    lr_mult: 1
    decay_mult: 1
  }
  aicorekernel {
    kernelfile: "conv_fw_op_64_32_64_16_16_nobias_3_3_1_1_2_2.o"
    kernelname: "conv_fw_op_64_32_64_16_16_nobias_3_3_1_1_2_2__kernel0"
    block_num: 2
  }
  aicorekernel {
    kernelfile: "conv_bw_weight_op_64_32_64_16_16_3_3_1_1_2_2.o"
    kernelname: "conv_bw_weight_op_64_32_64_16_16_3_3_1_1_2_2__kernel0"
    block_num: 16
  }
  aicorekernel {
    kernelfile: "conv_bw_input_op_64_32_64_16_16_3_3_1_1_2_2.o"
    kernelname: "conv_bw_input_op_64_32_64_16_16_3_3_1_1_2_2__kernel0"
    block_num: 2
  }
  convolution_param {
    num_output: 64
    bias_term: false
    pad: 1
    kernel_size: 3
    stride: 2
    weight_filler {
      type: "msra"
    }
  }
}
layer {
  type: "FourFive"
  bottom: "group2_block0_conv0"
  top: "group2_block0_conv0_debug_auto_in"
  fourfive_param {
    four2five: true
  }
}
layer {
  name: "group2_block0_conv0_bn"
  type: "BatchNorm"
  bottom: "group2_block0_conv0_debug_auto_in"
  top: "group2_block0_conv0_debug_auto_in"
  scale_param {
    bias_term: true
  }
}
layer {
  type: "FourFive"
  bottom: "group2_block0_conv0_debug_auto_in"
  top: "group2_block0_conv0_debug_auto_out"
  fourfive_param {
    four2five: false
    channels: 64
  }
}
layer {
  name: "group2_block0_conv0_relu"
  type: "ReLU"
  bottom: "group2_block0_conv0_debug_auto_out"
  top: "group2_block0_conv0_debug_auto_out"
}
layer {
  name: "group2_block0_conv1"
  type: "Convolution"
  bottom: "group2_block0_conv0_debug_auto_out"
  top: "group2_block0_conv1"
  param {
    lr_mult: 1
    decay_mult: 1
  }
  aicorekernel {
    kernelfile: "conv_fw_op_64_64_64_8_8_nobias_3_3_1_1_1_1.o"
    kernelname: "conv_fw_op_64_64_64_8_8_nobias_3_3_1_1_1_1__kernel0"
    block_num: 2
  }
  aicorekernel {
    kernelfile: "conv_bw_weight_op_64_64_64_8_8_3_3_1_1_1_1.o"
    kernelname: "conv_bw_weight_op_64_64_64_8_8_3_3_1_1_1_1__kernel0"
    block_num: 32
  }
  aicorekernel {
    kernelfile: "conv_bw_input_op_64_64_64_8_8_3_3_1_1_1_1.o"
    kernelname: "conv_bw_input_op_64_64_64_8_8_3_3_1_1_1_1__kernel0"
    block_num: 2
  }
  convolution_param {
    num_output: 64
    bias_term: false
    pad: 1
    kernel_size: 3
    stride: 1
    weight_filler {
      type: "msra"
    }
  }
}
layer {
  type: "FourFive"
  bottom: "group2_block0_conv1"
  top: "group2_block0_conv1_debug_auto_in"
  fourfive_param {
    four2five: true
  }
}
layer {
  name: "group2_block0_conv1_bn"
  type: "BatchNorm"
  bottom: "group2_block0_conv1_debug_auto_in"
  top: "group2_block0_conv1_debug_auto_in"
  scale_param {
    bias_term: true
  }
}
layer {
  type: "FourFive"
  bottom: "group2_block0_conv1_debug_auto_in"
  top: "group2_block0_conv1_debug_auto_out"
  fourfive_param {
    four2five: false
    channels: 64
  }
}
layer {
  name: "group2_block0_proj"
  type: "Convolution"
  bottom: "group1_block2_sum"
  top: "group2_block0_proj"
  param {
    lr_mult: 1
    decay_mult: 1
  }
  aicorekernel {
    kernelfile: "conv_fw_op_64_32_64_16_16_nobias_1_1_0_0_2_2.o"
    kernelname: "conv_fw_op_64_32_64_16_16_nobias_1_1_0_0_2_2__kernel0"
    block_num: 2
  }
  aicorekernel {
    kernelfile: "conv_bw_weight_op_64_32_64_16_16_1_1_0_0_2_2.o"
    kernelname: "conv_bw_weight_op_64_32_64_16_16_1_1_0_0_2_2__kernel0"
    block_num: 16
  }
  aicorekernel {
    kernelfile: "conv_bw_input_op_64_32_64_16_16_1_1_0_0_2_2.o"
    kernelname: "conv_bw_input_op_64_32_64_16_16_1_1_0_0_2_2__kernel0"
    block_num: 2
  }
  convolution_param {
    num_output: 64
    bias_term: false
    pad: 0
    kernel_size: 1
    stride: 2
    weight_filler {
      type: "msra"
    }
  }
}
layer {
  type: "FourFive"
  bottom: "group2_block0_proj"
  top: "group2_block0_proj_debug_auto_in"
  fourfive_param {
    four2five: true
  }
}
layer {
  name: "group2_block0_proj_bn"
  type: "BatchNorm"
  bottom: "group2_block0_proj_debug_auto_in"
  top: "group2_block0_proj_debug_auto_in"
  scale_param {
    bias_term: true
  }
}
layer {
  type: "FourFive"
  bottom: "group2_block0_proj_debug_auto_in"
  top: "group2_block0_proj_debug_auto_out"
  fourfive_param {
    four2five: false
    channels: 64
  }
}
layer {
  name: "group2_block0_sum"
  type: "Eltwise"
  bottom: "group2_block0_proj_debug_auto_out"
  bottom: "group2_block0_conv1_debug_auto_out"
  top: "group2_block0_sum"
  eltwise_param {
    operation: SUM
  }
}
layer {
  name: "group2_block0_relu"
  type: "ReLU"
  bottom: "group2_block0_sum"
  top: "group2_block0_sum"
}
layer {
  name: "group2_block1_conv0"
  type: "Convolution"
  bottom: "group2_block0_sum"
  top: "group2_block1_conv0"
  param {
    lr_mult: 1
    decay_mult: 1
  }
  aicorekernel {
    kernelfile: "conv_fw_op_64_64_64_8_8_nobias_3_3_1_1_1_1.o"
    kernelname: "conv_fw_op_64_64_64_8_8_nobias_3_3_1_1_1_1__kernel0"
    block_num: 2
  }
  aicorekernel {
    kernelfile: "conv_bw_weight_op_64_64_64_8_8_3_3_1_1_1_1.o"
    kernelname: "conv_bw_weight_op_64_64_64_8_8_3_3_1_1_1_1__kernel0"
    block_num: 32
  }
  aicorekernel {
    kernelfile: "conv_bw_input_op_64_64_64_8_8_3_3_1_1_1_1.o"
    kernelname: "conv_bw_input_op_64_64_64_8_8_3_3_1_1_1_1__kernel0"
    block_num: 2
  }
  convolution_param {
    num_output: 64
    bias_term: false
    pad: 1
    kernel_size: 3
    stride: 1
    weight_filler {
      type: "msra"
    }
  }
}
layer {
  type: "FourFive"
  bottom: "group2_block1_conv0"
  top: "group2_block1_conv0_debug_auto_in"
  fourfive_param {
    four2five: true
  }
}
layer {
  name: "group2_block1_conv0_bn"
  type: "BatchNorm"
  bottom: "group2_block1_conv0_debug_auto_in"
  top: "group2_block1_conv0_debug_auto_in"
  scale_param {
    bias_term: true
  }
}
layer {
  type: "FourFive"
  bottom: "group2_block1_conv0_debug_auto_in"
  top: "group2_block1_conv0_debug_auto_out"
  fourfive_param {
    four2five: false
    channels: 64
  }
}
layer {
  name: "group2_block1_conv0_relu"
  type: "ReLU"
  bottom: "group2_block1_conv0_debug_auto_out"
  top: "group2_block1_conv0_debug_auto_out"
}
layer {
  name: "group2_block1_conv1"
  type: "Convolution"
  bottom: "group2_block1_conv0_debug_auto_out"
  top: "group2_block1_conv1"
  param {
    lr_mult: 1
    decay_mult: 1
  }
  aicorekernel {
    kernelfile: "conv_fw_op_64_64_64_8_8_nobias_3_3_1_1_1_1.o"
    kernelname: "conv_fw_op_64_64_64_8_8_nobias_3_3_1_1_1_1__kernel0"
    block_num: 2
  }
  aicorekernel {
    kernelfile: "conv_bw_weight_op_64_64_64_8_8_3_3_1_1_1_1.o"
    kernelname: "conv_bw_weight_op_64_64_64_8_8_3_3_1_1_1_1__kernel0"
    block_num: 32
  }
  aicorekernel {
    kernelfile: "conv_bw_input_op_64_64_64_8_8_3_3_1_1_1_1.o"
    kernelname: "conv_bw_input_op_64_64_64_8_8_3_3_1_1_1_1__kernel0"
    block_num: 2
  }
  convolution_param {
    num_output: 64
    bias_term: false
    pad: 1
    kernel_size: 3
    stride: 1
    weight_filler {
      type: "msra"
    }
  }
}
layer {
  type: "FourFive"
  bottom: "group2_block1_conv1"
  top: "group2_block1_conv1_debug_auto_in"
  fourfive_param {
    four2five: true
  }
}
layer {
  name: "group2_block1_conv1_bn"
  type: "BatchNorm"
  bottom: "group2_block1_conv1_debug_auto_in"
  top: "group2_block1_conv1_debug_auto_in"
  scale_param {
    bias_term: true
  }
}
layer {
  type: "FourFive"
  bottom: "group2_block1_conv1_debug_auto_in"
  top: "group2_block1_conv1_debug_auto_out"
  fourfive_param {
    four2five: false
    channels: 64
  }
}
layer {
  name: "group2_block1_sum"
  type: "Eltwise"
  bottom: "group2_b
I0824 02:02:46.417402 115696 layer_factory.hpp:77] Creating layer resnet-18
I0824 02:02:46.417486 115696 db_lmdb.cpp:35] Opened lmdb examples/cifar10/cifar10_train_lmdb
I0824 02:02:46.417516 115696 net.cpp:88] Creating Layer resnet-18
I0824 02:02:46.417526 115696 net.cpp:384] resnet-18 -> data
I0824 02:02:46.417554 115696 net.cpp:384] resnet-18 -> label
I0824 02:02:46.417587 115696 data_layer.cpp:45] output data size: 64,3,32,32
I0824 02:02:46.417681 115696 net.cpp:126] Setting up resnet-18
I0824 02:02:46.417691 115696 net.cpp:133] Top shape: 64 3 32 32 (196608)
I0824 02:02:46.417699 115696 net.cpp:133] Top shape: 64 (64)
I0824 02:02:46.417706 115696 net.cpp:141] Memory required for data: 786688
I0824 02:02:46.417713 115696 layer_factory.hpp:77] Creating layer first_conv
I0824 02:02:46.417729 115696 net.cpp:88] Creating Layer first_conv
I0824 02:02:46.417737 115696 net.cpp:410] first_conv <- data
I0824 02:02:46.417745 115696 net.cpp:384] first_conv -> first_conv
I0824 02:02:46.417824 115696 net.cpp:126] Setting up first_conv
I0824 02:02:46.417840 115696 net.cpp:133] Top shape: 64 16 32 32 (1048576)
I0824 02:02:46.417845 115696 net.cpp:141] Memory required for data: 4980992
I0824 02:02:46.417861 115696 layer_factory.hpp:77] Creating layer 
I0824 02:02:46.417873 115696 net.cpp:88] Creating Layer 
I0824 02:02:46.417879 115696 net.cpp:410]  <- first_conv
I0824 02:02:46.417888 115696 net.cpp:384]  -> first_conv_debug_auto_in
I0824 02:02:46.417899 115696 net.cpp:126] Setting up 
I0824 02:02:46.417904 115696 net.cpp:133] Top shape: 64 1 32 32 16 (1048576)
I0824 02:02:46.417910 115696 net.cpp:141] Memory required for data: 9175296
I0824 02:02:46.417917 115696 layer_factory.hpp:77] Creating layer first_conv_bn
I0824 02:02:46.417937 115696 net.cpp:88] Creating Layer first_conv_bn
I0824 02:02:46.417948 115696 net.cpp:410] first_conv_bn <- first_conv_debug_auto_in
I0824 02:02:46.417953 115696 net.cpp:371] first_conv_bn -> first_conv_debug_auto_in (in-place)
I0824 02:02:46.418001 115696 net.cpp:126] Setting up first_conv_bn
I0824 02:02:46.418015 115696 net.cpp:133] Top shape: 64 1 32 32 16 (1048576)
I0824 02:02:46.418021 115696 net.cpp:141] Memory required for data: 13369600
I0824 02:02:46.418033 115696 layer_factory.hpp:77] Creating layer 
I0824 02:02:46.418040 115696 net.cpp:88] Creating Layer 
I0824 02:02:46.418057 115696 net.cpp:410]  <- first_conv_debug_auto_in
I0824 02:02:46.418067 115696 net.cpp:384]  -> first_conv_debug_auto_out
I0824 02:02:46.418076 115696 net.cpp:126] Setting up 
I0824 02:02:46.418082 115696 net.cpp:133] Top shape: 64 16 32 32 (1048576)
I0824 02:02:46.418089 115696 net.cpp:141] Memory required for data: 17563904
I0824 02:02:46.418094 115696 layer_factory.hpp:77] Creating layer first_conv_relu
I0824 02:02:46.418112 115696 net.cpp:88] Creating Layer first_conv_relu
I0824 02:02:46.418117 115696 net.cpp:410] first_conv_relu <- first_conv_debug_auto_out
I0824 02:02:46.418123 115696 net.cpp:371] first_conv_relu -> first_conv_debug_auto_out (in-place)
I0824 02:02:46.418133 115696 net.cpp:126] Setting up first_conv_relu
I0824 02:02:46.418138 115696 net.cpp:133] Top shape: 64 16 32 32 (1048576)
I0824 02:02:46.418155 115696 net.cpp:141] Memory required for data: 21758208
I0824 02:02:46.418159 115696 layer_factory.hpp:77] Creating layer first_conv_debug_auto_out_first_conv_relu_0_split
I0824 02:02:46.418172 115696 net.cpp:88] Creating Layer first_conv_debug_auto_out_first_conv_relu_0_split
I0824 02:02:46.418179 115696 net.cpp:410] first_conv_debug_auto_out_first_conv_relu_0_split <- first_conv_debug_auto_out
I0824 02:02:46.418184 115696 net.cpp:384] first_conv_debug_auto_out_first_conv_relu_0_split -> first_conv_debug_auto_out_first_conv_relu_0_split_0
I0824 02:02:46.418195 115696 net.cpp:384] first_conv_debug_auto_out_first_conv_relu_0_split -> first_conv_debug_auto_out_first_conv_relu_0_split_1
I0824 02:02:46.418203 115696 net.cpp:126] Setting up first_conv_debug_auto_out_first_conv_relu_0_split
I0824 02:02:46.418208 115696 net.cpp:133] Top shape: 64 16 32 32 (1048576)
I0824 02:02:46.418220 115696 net.cpp:133] Top shape: 64 16 32 32 (1048576)
I0824 02:02:46.418241 115696 net.cpp:141] Memory required for data: 30146816
I0824 02:02:46.418244 115696 layer_factory.hpp:77] Creating layer group0_block0_conv0
I0824 02:02:46.418256 115696 net.cpp:88] Creating Layer group0_block0_conv0
I0824 02:02:46.418265 115696 net.cpp:410] group0_block0_conv0 <- first_conv_debug_auto_out_first_conv_relu_0_split_0
I0824 02:02:46.418288 115696 net.cpp:384] group0_block0_conv0 -> group0_block0_conv0
I0824 02:02:46.418395 115696 net.cpp:126] Setting up group0_block0_conv0
I0824 02:02:46.418406 115696 net.cpp:133] Top shape: 64 16 32 32 (1048576)
I0824 02:02:46.418432 115696 net.cpp:141] Memory required for data: 34341120
I0824 02:02:46.418440 115696 layer_factory.hpp:77] Creating layer 
I0824 02:02:46.418459 115696 net.cpp:88] Creating Layer 
I0824 02:02:46.418464 115696 net.cpp:410]  <- group0_block0_conv0
I0824 02:02:46.418473 115696 net.cpp:384]  -> group0_block0_conv0_debug_auto_in
I0824 02:02:46.418481 115696 net.cpp:126] Setting up 
I0824 02:02:46.418488 115696 net.cpp:133] Top shape: 64 1 32 32 16 (1048576)
I0824 02:02:46.418493 115696 net.cpp:141] Memory required for data: 38535424
I0824 02:02:46.418496 115696 layer_factory.hpp:77] Creating layer group0_block0_conv0_bn
I0824 02:02:46.418514 115696 net.cpp:88] Creating Layer group0_block0_conv0_bn
I0824 02:02:46.418519 115696 net.cpp:410] group0_block0_conv0_bn <- group0_block0_conv0_debug_auto_in
I0824 02:02:46.418524 115696 net.cpp:371] group0_block0_conv0_bn -> group0_block0_conv0_debug_auto_in (in-place)
I0824 02:02:46.418541 115696 net.cpp:126] Setting up group0_block0_conv0_bn
I0824 02:02:46.418548 115696 net.cpp:133] Top shape: 64 1 32 32 16 (1048576)
I0824 02:02:46.418562 115696 net.cpp:141] Memory required for data: 42729728
I0824 02:02:46.418572 115696 layer_factory.hpp:77] Creating layer 
I0824 02:02:46.418581 115696 net.cpp:88] Creating Layer 
I0824 02:02:46.418587 115696 net.cpp:410]  <- group0_block0_conv0_debug_auto_in
I0824 02:02:46.418597 115696 net.cpp:384]  -> group0_block0_conv0_debug_auto_out
I0824 02:02:46.418612 115696 net.cpp:126] Setting up 
I0824 02:02:46.418629 115696 net.cpp:133] Top shape: 64 16 32 32 (1048576)
I0824 02:02:46.418635 115696 net.cpp:141] Memory required for data: 46924032
I0824 02:02:46.418639 115696 layer_factory.hpp:77] Creating layer group0_block0_conv0_relu
I0824 02:02:46.418653 115696 net.cpp:88] Creating Layer group0_block0_conv0_relu
I0824 02:02:46.418658 115696 net.cpp:410] group0_block0_conv0_relu <- group0_block0_conv0_debug_auto_out
I0824 02:02:46.418666 115696 net.cpp:371] group0_block0_conv0_relu -> group0_block0_conv0_debug_auto_out (in-place)
I0824 02:02:46.418681 115696 net.cpp:126] Setting up group0_block0_conv0_relu
I0824 02:02:46.418685 115696 net.cpp:133] Top shape: 64 16 32 32 (1048576)
I0824 02:02:46.418690 115696 net.cpp:141] Memory required for data: 51118336
I0824 02:02:46.418694 115696 layer_factory.hpp:77] Creating layer group0_block0_conv1
I0824 02:02:46.418701 115696 net.cpp:88] Creating Layer group0_block0_conv1
I0824 02:02:46.418705 115696 net.cpp:410] group0_block0_conv1 <- group0_block0_conv0_debug_auto_out
I0824 02:02:46.418712 115696 net.cpp:384] group0_block0_conv1 -> group0_block0_conv1
I0824 02:02:46.418792 115696 net.cpp:126] Setting up group0_block0_conv1
I0824 02:02:46.418802 115696 net.cpp:133] Top shape: 64 16 32 32 (1048576)
I0824 02:02:46.418809 115696 net.cpp:141] Memory required for data: 55312640
I0824 02:02:46.418823 115696 layer_factory.hpp:77] Creating layer 
I0824 02:02:46.418828 115696 net.cpp:88] Creating Layer 
I0824 02:02:46.418831 115696 net.cpp:410]  <- group0_block0_conv1
I0824 02:02:46.418838 115696 net.cpp:384]  -> group0_block0_conv1_debug_auto_in
I0824 02:02:46.418845 115696 net.cpp:126] Setting up 
I0824 02:02:46.418859 115696 net.cpp:133] Top shape: 64 1 32 32 16 (1048576)
I0824 02:02:46.418864 115696 net.cpp:141] Memory required for data: 59506944
I0824 02:02:46.418867 115696 layer_factory.hpp:77] Creating layer group0_block0_conv1_bn
I0824 02:02:46.418882 115696 net.cpp:88] Creating Layer group0_block0_conv1_bn
I0824 02:02:46.418886 115696 net.cpp:410] group0_block0_conv1_bn <- group0_block0_conv1_debug_auto_in
I0824 02:02:46.418900 115696 net.cpp:371] group0_block0_conv1_bn -> group0_block0_conv1_debug_auto_in (in-place)
I0824 02:02:46.418913 115696 net.cpp:126] Setting up group0_block0_conv1_bn
I0824 02:02:46.418918 115696 net.cpp:133] Top shape: 64 1 32 32 16 (1048576)
I0824 02:02:46.418923 115696 net.cpp:141] Memory required for data: 63701248
I0824 02:02:46.418934 115696 layer_factory.hpp:77] Creating layer 
I0824 02:02:46.418941 115696 net.cpp:88] Creating Layer 
I0824 02:02:46.418944 115696 net.cpp:410]  <- group0_block0_conv1_debug_auto_in
I0824 02:02:46.418949 115696 net.cpp:384]  -> group0_block0_conv1_debug_auto_out
I0824 02:02:46.418954 115696 net.cpp:126] Setting up 
I0824 02:02:46.418962 115696 net.cpp:133] Top shape: 64 16 32 32 (1048576)
I0824 02:02:46.418967 115696 net.cpp:141] Memory required for data: 67895552
I0824 02:02:46.418969 115696 layer_factory.hpp:77] Creating layer group0_block0_sum
I0824 02:02:46.418978 115696 net.cpp:88] Creating Layer group0_block0_sum
I0824 02:02:46.418982 115696 net.cpp:410] group0_block0_sum <- group0_block0_conv1_debug_auto_out
I0824 02:02:46.418987 115696 net.cpp:410] group0_block0_sum <- first_conv_debug_auto_out_first_conv_relu_0_split_1
I0824 02:02:46.418993 115696 net.cpp:384] group0_block0_sum -> group0_block0_sum
I0824 02:02:46.419001 115696 net.cpp:126] Setting up group0_block0_sum
I0824 02:02:46.419008 115696 net.cpp:133] Top shape: 64 16 32 32 (1048576)
I0824 02:02:46.419013 115696 net.cpp:141] Memory required for data: 72089856
I0824 02:02:46.419016 115696 layer_factory.hpp:77] Creating layer group0_block0_relu
I0824 02:02:46.419029 115696 net.cpp:88] Creating Layer group0_block0_relu
I0824 02:02:46.419034 115696 net.cpp:410] group0_block0_relu <- group0_block0_sum
I0824 02:02:46.419056 115696 net.cpp:371] group0_block0_relu -> group0_block0_sum (in-place)
I0824 02:02:46.419062 115696 net.cpp:126] Setting up group0_block0_relu
I0824 02:02:46.419070 115696 net.cpp:133] Top shape: 64 16 32 32 (1048576)
I0824 02:02:46.419075 115696 net.cpp:141] Memory required for data: 76284160
I0824 02:02:46.419078 115696 layer_factory.hpp:77] Creating layer group0_block0_sum_group0_block0_relu_0_split
I0824 02:02:46.419086 115696 net.cpp:88] Creating Layer group0_block0_sum_group0_block0_relu_0_split
I0824 02:02:46.419090 115696 net.cpp:410] group0_block0_sum_group0_block0_relu_0_split <- group0_block0_sum
I0824 02:02:46.419095 115696 net.cpp:384] group0_block0_sum_group0_block0_relu_0_split -> group0_block0_sum_group0_block0_relu_0_split_0
I0824 02:02:46.419100 115696 net.cpp:384] group0_block0_sum_group0_block0_relu_0_split -> group0_block0_sum_group0_block0_relu_0_split_1
I0824 02:02:46.419116 115696 net.cpp:126] Setting up group0_block0_sum_group0_block0_relu_0_split
I0824 02:02:46.419121 115696 net.cpp:133] Top shape: 64 16 32 32 (1048576)
I0824 02:02:46.419126 115696 net.cpp:133] Top shape: 64 16 32 32 (1048576)
I0824 02:02:46.419131 115696 net.cpp:141] Memory required for data: 84672768
I0824 02:02:46.419144 115696 layer_factory.hpp:77] Creating layer group0_block1_conv0
I0824 02:02:46.419152 115696 net.cpp:88] Creating Layer group0_block1_conv0
I0824 02:02:46.419157 115696 net.cpp:410] group0_block1_conv0 <- group0_block0_sum_group0_block0_relu_0_split_0
I0824 02:02:46.419174 115696 net.cpp:384] group0_block1_conv0 -> group0_block1_conv0
I0824 02:02:46.419255 115696 net.cpp:126] Setting up group0_block1_conv0
I0824 02:02:46.419270 115696 net.cpp:133] Top shape: 64 16 32 32 (1048576)
I0824 02:02:46.419275 115696 net.cpp:141] Memory required for data: 88867072
I0824 02:02:46.419281 115696 layer_factory.hpp:77] Creating layer 
I0824 02:02:46.419284 115696 net.cpp:88] Creating Layer 
I0824 02:02:46.419291 115696 net.cpp:410]  <- group0_block1_conv0
I0824 02:02:46.419296 115696 net.cpp:384]  -> group0_block1_conv0_debug_auto_in
I0824 02:02:46.419303 115696 net.cpp:126] Setting up 
I0824 02:02:46.419307 115696 net.cpp:133] Top shape: 64 1 32 32 16 (1048576)
I0824 02:02:46.419313 115696 net.cpp:141] Memory required for data: 93061376
I0824 02:02:46.419317 115696 layer_factory.hpp:77] Creating layer group0_block1_conv0_bn
I0824 02:02:46.419332 115696 net.cpp:88] Creating Layer group0_block1_conv0_bn
I0824 02:02:46.419337 115696 net.cpp:410] group0_block1_conv0_bn <- group0_block1_conv0_debug_auto_in
I0824 02:02:46.419340 115696 net.cpp:371] group0_block1_conv0_bn -> group0_block1_conv0_debug_auto_in (in-place)
I0824 02:02:46.419353 115696 net.cpp:126] Setting up group0_block1_conv0_bn
I0824 02:02:46.419368 115696 net.cpp:133] Top shape: 64 1 32 32 16 (1048576)
I0824 02:02:46.419371 115696 net.cpp:141] Memory required for data: 97255680
I0824 02:02:46.419386 115696 layer_factory.hpp:77] Creating layer 
I0824 02:02:46.419391 115696 net.cpp:88] Creating Layer 
I0824 02:02:46.419404 115696 net.cpp:410]  <- group0_block1_conv0_debug_auto_in
I0824 02:02:46.419410 115696 net.cpp:384]  -> group0_block1_conv0_debug_auto_out
I0824 02:02:46.419416 115696 net.cpp:126] Setting up 
I0824 02:02:46.419420 115696 net.cpp:133] Top shape: 64 16 32 32 (1048576)
I0824 02:02:46.419425 115696 net.cpp:141] Memory required for data: 101449984
I0824 02:02:46.419430 115696 layer_factory.hpp:77] Creating layer group0_block1_conv0_relu
I0824 02:02:46.419435 115696 net.cpp:88] Creating Layer group0_block1_conv0_relu
I0824 02:02:46.419440 115696 net.cpp:410] group0_block1_conv0_relu <- group0_block1_conv0_debug_auto_out
I0824 02:02:46.419443 115696 net.cpp:371] group0_block1_conv0_relu -> group0_block1_conv0_debug_auto_out (in-place)
I0824 02:02:46.419448 115696 net.cpp:126] Setting up group0_block1_conv0_relu
I0824 02:02:46.419461 115696 net.cpp:133] Top shape: 64 16 32 32 (1048576)
I0824 02:02:46.419479 115696 net.cpp:141] Memory required for data: 105644288
I0824 02:02:46.419483 115696 layer_factory.hpp:77] Creating layer group0_block1_conv1
I0824 02:02:46.419492 115696 net.cpp:88] Creating Layer group0_block1_conv1
I0824 02:02:46.419497 115696 net.cpp:410] group0_block1_conv1 <- group0_block1_conv0_debug_auto_out
I0824 02:02:46.419508 115696 net.cpp:384] group0_block1_conv1 -> group0_block1_conv1
I0824 02:02:46.419585 115696 net.cpp:126] Setting up group0_block1_conv1
I0824 02:02:46.419600 115696 net.cpp:133] Top shape: 64 16 32 32 (1048576)
I0824 02:02:46.419613 115696 net.cpp:141] Memory required for data: 109838592
I0824 02:02:46.419617 115696 layer_factory.hpp:77] Creating layer 
I0824 02:02:46.419622 115696 net.cpp:88] Creating Layer 
I0824 02:02:46.419626 115696 net.cpp:410]  <- group0_block1_conv1
I0824 02:02:46.419639 115696 net.cpp:384]  -> group0_block1_conv1_debug_auto_in
I0824 02:02:46.419658 115696 net.cpp:126] Setting up 
I0824 02:02:46.419663 115696 net.cpp:133] Top shape: 64 1 32 32 16 (1048576)
I0824 02:02:46.419680 115696 net.cpp:141] Memory required for data: 114032896
I0824 02:02:46.419688 115696 layer_factory.hpp:77] Creating layer group0_block1_conv1_bn
I0824 02:02:46.419695 115696 net.cpp:88] Creating Layer group0_block1_conv1_bn
I0824 02:02:46.419713 115696 net.cpp:410] group0_block1_conv1_bn <- group0_block1_conv1_debug_auto_in
I0824 02:02:46.419718 115696 net.cpp:371] group0_block1_conv1_bn -> group0_block1_conv1_debug_auto_in (in-place)
I0824 02:02:46.419734 115696 net.cpp:126] Setting up group0_block1_conv1_bn
I0824 02:02:46.419740 115696 net.cpp:133] Top shape: 64 1 32 32 16 (1048576)
I0824 02:02:46.419746 115696 net.cpp:141] Memory required for data: 118227200
I0824 02:02:46.419754 115696 layer_factory.hpp:77] Creating layer 
I0824 02:02:46.419759 115696 net.cpp:88] Creating Layer 
I0824 02:02:46.419771 115696 net.cpp:410]  <- group0_block1_conv1_debug_auto_in
I0824 02:02:46.419776 115696 net.cpp:384]  -> group0_block1_conv1_debug_auto_out
I0824 02:02:46.419782 115696 net.cpp:126] Setting up 
I0824 02:02:46.419786 115696 net.cpp:133] Top shape: 64 16 32 32 (1048576)
I0824 02:02:46.419800 115696 net.cpp:141] Memory required for data: 122421504
I0824 02:02:46.419806 115696 layer_factory.hpp:77] Creating layer group0_block1_sum
I0824 02:02:46.419811 115696 net.cpp:88] Creating Layer group0_block1_sum
I0824 02:02:46.419814 115696 net.cpp:410] group0_block1_sum <- group0_block1_conv1_debug_auto_out
I0824 02:02:46.419819 115696 net.cpp:410] group0_block1_sum <- group0_block0_sum_group0_block0_relu_0_split_1
I0824 02:02:46.419824 115696 net.cpp:384] group0_block1_sum -> group0_block1_sum
I0824 02:02:46.419834 115696 net.cpp:126] Setting up group0_block1_sum
I0824 02:02:46.419838 115696 net.cpp:133] Top shape: 64 16 32 32 (1048576)
I0824 02:02:46.419842 115696 net.cpp:141] Memory required for data: 126615808
I0824 02:02:46.419847 115696 layer_factory.hpp:77] Creating layer group0_block1_relu
I0824 02:02:46.419852 115696 net.cpp:88] Creating Layer group0_block1_relu
I0824 02:02:46.419858 115696 net.cpp:410] group0_block1_relu <- group0_block1_sum
I0824 02:02:46.419872 115696 net.cpp:371] group0_block1_relu -> group0_block1_sum (in-place)
I0824 02:02:46.419886 115696 net.cpp:126] Setting up group0_block1_relu
I0824 02:02:46.419899 115696 net.cpp:133] Top shape: 64 16 32 32 (1048576)
I0824 02:02:46.419908 115696 net.cpp:141] Memory required for data: 130810112
I0824 02:02:46.419912 115696 layer_factory.hpp:77] Creating layer group0_block1_sum_group0_block1_relu_0_split
I0824 02:02:46.419916 115696 net.cpp:88] Creating Layer group0_block1_sum_group0_block1_relu_0_split
I0824 02:02:46.419930 115696 net.cpp:410] group0_block1_sum_group0_block1_relu_0_split <- group0_block1_sum
I0824 02:02:46.419935 115696 net.cpp:384] group0_block1_sum_group0_block1_relu_0_split -> group0_block1_sum_group0_block1_relu_0_split_0
I0824 02:02:46.419941 115696 net.cpp:384] group0_block1_sum_group0_block1_relu_0_split -> group0_block1_sum_group0_block1_relu_0_split_1
I0824 02:02:46.419961 115696 net.cpp:126] Setting up group0_block1_sum_group0_block1_relu_0_split
I0824 02:02:46.419968 115696 net.cpp:133] Top shape: 64 16 32 32 (1048576)
I0824 02:02:46.419975 115696 net.cpp:133] Top shape: 64 16 32 32 (1048576)
I0824 02:02:46.419989 115696 net.cpp:141] Memory required for data: 139198720
I0824 02:02:46.419997 115696 layer_factory.hpp:77] Creating layer group0_block2_conv0
I0824 02:02:46.420006 115696 net.cpp:88] Creating Layer group0_block2_conv0
I0824 02:02:46.420011 115696 net.cpp:410] group0_block2_conv0 <- group0_block1_sum_group0_block1_relu_0_split_0
I0824 02:02:46.420017 115696 net.cpp:384] group0_block2_conv0 -> group0_block2_conv0
I0824 02:02:46.420092 115696 net.cpp:126] Setting up group0_block2_conv0
I0824 02:02:46.420116 115696 net.cpp:133] Top shape: 64 16 32 32 (1048576)
I0824 02:02:46.420125 115696 net.cpp:141] Memory required for data: 143393024
I0824 02:02:46.420137 115696 layer_factory.hpp:77] Creating layer 
I0824 02:02:46.420151 115696 net.cpp:88] Creating Layer 
I0824 02:02:46.420158 115696 net.cpp:410]  <- group0_block2_conv0
I0824 02:02:46.420173 115696 net.cpp:384]  -> group0_block2_conv0_debug_auto_in
I0824 02:02:46.420184 115696 net.cpp:126] Setting up 
I0824 02:02:46.420188 115696 net.cpp:133] Top shape: 64 1 32 32 16 (1048576)
I0824 02:02:46.420193 115696 net.cpp:141] Memory required for data: 147587328
I0824 02:02:46.420202 115696 layer_factory.hpp:77] Creating layer group0_block2_conv0_bn
I0824 02:02:46.420207 115696 net.cpp:88] Creating Layer group0_block2_conv0_bn
I0824 02:02:46.420210 115696 net.cpp:410] group0_block2_conv0_bn <- group0_block2_conv0_debug_auto_in
I0824 02:02:46.420217 115696 net.cpp:371] group0_block2_conv0_bn -> group0_block2_conv0_debug_auto_in (in-place)
I0824 02:02:46.420231 115696 net.cpp:126] Setting up group0_block2_conv0_bn
I0824 02:02:46.420238 115696 net.cpp:133] Top shape: 64 1 32 32 16 (1048576)
I0824 02:02:46.420243 115696 net.cpp:141] Memory required for data: 151781632
I0824 02:02:46.420253 115696 layer_factory.hpp:77] Creating layer 
I0824 02:02:46.420260 115696 net.cpp:88] Creating Layer 
I0824 02:02:46.420264 115696 net.cpp:410]  <- group0_block2_conv0_debug_auto_in
I0824 02:02:46.420280 115696 net.cpp:384]  -> group0_block2_conv0_debug_auto_out
I0824 02:02:46.420294 115696 net.cpp:126] Setting up 
I0824 02:02:46.420298 115696 net.cpp:133] Top shape: 64 16 32 32 (1048576)
I0824 02:02:46.420302 115696 net.cpp:141] Memory required for data: 155975936
I0824 02:02:46.420310 115696 layer_factory.hpp:77] Creating layer group0_block2_conv0_relu
I0824 02:02:46.420323 115696 net.cpp:88] Creating Layer group0_block2_conv0_relu
I0824 02:02:46.420327 115696 net.cpp:410] group0_block2_conv0_relu <- group0_block2_conv0_debug_auto_out
I0824 02:02:46.420333 115696 net.cpp:371] group0_block2_conv0_relu -> group0_block2_conv0_debug_auto_out (in-place)
I0824 02:02:46.420338 115696 net.cpp:126] Setting up group0_block2_conv0_relu
I0824 02:02:46.420344 115696 net.cpp:133] Top shape: 64 16 32 32 (1048576)
I0824 02:02:46.420349 115696 net.cpp:141] Memory required for data: 160170240
I0824 02:02:46.420352 115696 layer_factory.hpp:77] Creating layer group0_block2_conv1
I0824 02:02:46.420365 115696 net.cpp:88] Creating Layer group0_block2_conv1
I0824 02:02:46.420370 115696 net.cpp:410] group0_block2_conv1 <- group0_block2_conv0_debug_auto_out
I0824 02:02:46.420377 115696 net.cpp:384] group0_block2_conv1 -> group0_block2_conv1
I0824 02:02:46.420500 115696 net.cpp:126] Setting up group0_block2_conv1
I0824 02:02:46.420508 115696 net.cpp:133] Top shape: 64 16 32 32 (1048576)
I0824 02:02:46.420516 115696 net.cpp:141] Memory required for data: 164364544
I0824 02:02:46.420521 115696 layer_factory.hpp:77] Creating layer 
I0824 02:02:46.420529 115696 net.cpp:88] Creating Layer 
I0824 02:02:46.420536 115696 net.cpp:410]  <- group0_block2_conv1
I0824 02:02:46.420542 115696 net.cpp:384]  -> group0_block2_conv1_debug_auto_in
I0824 02:02:46.420549 115696 net.cpp:126] Setting up 
I0824 02:02:46.420554 115696 net.cpp:133] Top shape: 64 1 32 32 16 (1048576)
I0824 02:02:46.420565 115696 net.cpp:141] Memory required for data: 168558848
I0824 02:02:46.420570 115696 layer_factory.hpp:77] Creating layer group0_block2_conv1_bn
I0824 02:02:46.420578 115696 net.cpp:88] Creating Layer group0_block2_conv1_bn
I0824 02:02:46.420583 115696 net.cpp:410] group0_block2_conv1_bn <- group0_block2_conv1_debug_auto_in
I0824 02:02:46.420595 115696 net.cpp:371] group0_block2_conv1_bn -> group0_block2_conv1_debug_auto_in (in-place)
I0824 02:02:46.420612 115696 net.cpp:126] Setting up group0_block2_conv1_bn
I0824 02:02:46.420617 115696 net.cpp:133] Top shape: 64 1 32 32 16 (1048576)
I0824 02:02:46.420624 115696 net.cpp:141] Memory required for data: 172753152
I0824 02:02:46.420632 115696 layer_factory.hpp:77] Creating layer 
I0824 02:02:46.420639 115696 net.cpp:88] Creating Layer 
I0824 02:02:46.420644 115696 net.cpp:410]  <- group0_block2_conv1_debug_auto_in
I0824 02:02:46.420650 115696 net.cpp:384]  -> group0_block2_conv1_debug_auto_out
I0824 02:02:46.420657 115696 net.cpp:126] Setting up 
I0824 02:02:46.420661 115696 net.cpp:133] Top shape: 64 16 32 32 (1048576)
I0824 02:02:46.420667 115696 net.cpp:141] Memory required for data: 176947456
I0824 02:02:46.420671 115696 layer_factory.hpp:77] Creating layer group0_block2_sum
I0824 02:02:46.420680 115696 net.cpp:88] Creating Layer group0_block2_sum
I0824 02:02:46.420686 115696 net.cpp:410] group0_block2_sum <- group0_block2_conv1_debug_auto_out
I0824 02:02:46.420691 115696 net.cpp:410] group0_block2_sum <- group0_block1_sum_group0_block1_relu_0_split_1
I0824 02:02:46.420697 115696 net.cpp:384] group0_block2_sum -> group0_block2_sum
I0824 02:02:46.420706 115696 net.cpp:126] Setting up group0_block2_sum
I0824 02:02:46.420711 115696 net.cpp:133] Top shape: 64 16 32 32 (1048576)
I0824 02:02:46.420717 115696 net.cpp:141] Memory required for data: 181141760
I0824 02:02:46.420722 115696 layer_factory.hpp:77] Creating layer group0_block2_relu
I0824 02:02:46.420728 115696 net.cpp:88] Creating Layer group0_block2_relu
I0824 02:02:46.420733 115696 net.cpp:410] group0_block2_relu <- group0_block2_sum
I0824 02:02:46.420739 115696 net.cpp:371] group0_block2_relu -> group0_block2_sum (in-place)
I0824 02:02:46.420747 115696 net.cpp:126] Setting up group0_block2_relu
I0824 02:02:46.420751 115696 net.cpp:133] Top shape: 64 16 32 32 (1048576)
I0824 02:02:46.420756 115696 net.cpp:141] Memory required for data: 185336064
I0824 02:02:46.420761 115696 layer_factory.hpp:77] Creating layer group0_block2_sum_group0_block2_relu_0_split
I0824 02:02:46.420768 115696 net.cpp:88] Creating Layer group0_block2_sum_group0_block2_relu_0_split
I0824 02:02:46.420773 115696 net.cpp:410] group0_block2_sum_group0_block2_relu_0_split <- group0_block2_sum
I0824 02:02:46.420780 115696 net.cpp:384] group0_block2_sum_group0_block2_relu_0_split -> group0_block2_sum_group0_block2_relu_0_split_0
I0824 02:02:46.420790 115696 net.cpp:384] group0_block2_sum_group0_block2_relu_0_split -> group0_block2_sum_group0_block2_relu_0_split_1
I0824 02:02:46.420799 115696 net.cpp:126] Setting up group0_block2_sum_group0_block2_relu_0_split
I0824 02:02:46.420804 115696 net.cpp:133] Top shape: 64 16 32 32 (1048576)
I0824 02:02:46.420810 115696 net.cpp:133] Top shape: 64 16 32 32 (1048576)
I0824 02:02:46.420815 115696 net.cpp:141] Memory required for data: 193724672
I0824 02:02:46.420820 115696 layer_factory.hpp:77] Creating layer group1_block0_conv0
I0824 02:02:46.420830 115696 net.cpp:88] Creating Layer group1_block0_conv0
I0824 02:02:46.420835 115696 net.cpp:410] group1_block0_conv0 <- group0_block2_sum_group0_block2_relu_0_split_0
I0824 02:02:46.420846 115696 net.cpp:384] group1_block0_conv0 -> group1_block0_conv0
I0824 02:02:46.421051 115696 net.cpp:126] Setting up group1_block0_conv0
I0824 02:02:46.421058 115696 net.cpp:133] Top shape: 64 32 16 16 (524288)
I0824 02:02:46.421064 115696 net.cpp:141] Memory required for data: 195821824
I0824 02:02:46.421070 115696 layer_factory.hpp:77] Creating layer 
I0824 02:02:46.421077 115696 net.cpp:88] Creating Layer 
I0824 02:02:46.421082 115696 net.cpp:410]  <- group1_block0_conv0
I0824 02:02:46.421092 115696 net.cpp:384]  -> group1_block0_conv0_debug_auto_in
I0824 02:02:46.421100 115696 net.cpp:126] Setting up 
I0824 02:02:46.421105 115696 net.cpp:133] Top shape: 64 2 16 16 16 (524288)
I0824 02:02:46.421111 115696 net.cpp:141] Memory required for data: 197918976
I0824 02:02:46.421116 115696 layer_factory.hpp:77] Creating layer group1_block0_conv0_bn
I0824 02:02:46.421129 115696 net.cpp:88] Creating Layer group1_block0_conv0_bn
I0824 02:02:46.421135 115696 net.cpp:410] group1_block0_conv0_bn <- group1_block0_conv0_debug_auto_in
I0824 02:02:46.421141 115696 net.cpp:371] group1_block0_conv0_bn -> group1_block0_conv0_debug_auto_in (in-place)
I0824 02:02:46.421160 115696 net.cpp:126] Setting up group1_block0_conv0_bn
I0824 02:02:46.421167 115696 net.cpp:133] Top shape: 64 2 16 16 16 (524288)
I0824 02:02:46.421175 115696 net.cpp:141] Memory required for data: 200016128
I0824 02:02:46.421183 115696 layer_factory.hpp:77] Creating layer 
I0824 02:02:46.421191 115696 net.cpp:88] Creating Layer 
I0824 02:02:46.421196 115696 net.cpp:410]  <- group1_block0_conv0_debug_auto_in
I0824 02:02:46.421202 115696 net.cpp:384]  -> group1_block0_conv0_debug_auto_out
I0824 02:02:46.421211 115696 net.cpp:126] Setting up 
I0824 02:02:46.421217 115696 net.cpp:133] Top shape: 64 32 16 16 (524288)
I0824 02:02:46.421222 115696 net.cpp:141] Memory required for data: 202113280
I0824 02:02:46.421227 115696 layer_factory.hpp:77] Creating layer group1_block0_conv0_relu
I0824 02:02:46.421233 115696 net.cpp:88] Creating Layer group1_block0_conv0_relu
I0824 02:02:46.421238 115696 net.cpp:410] group1_block0_conv0_relu <- group1_block0_conv0_debug_auto_out
I0824 02:02:46.421243 115696 net.cpp:371] group1_block0_conv0_relu -> group1_block0_conv0_debug_auto_out (in-place)
I0824 02:02:46.421250 115696 net.cpp:126] Setting up group1_block0_conv0_relu
I0824 02:02:46.421254 115696 net.cpp:133] Top shape: 64 32 16 16 (524288)
I0824 02:02:46.421260 115696 net.cpp:141] Memory required for data: 204210432
I0824 02:02:46.421264 115696 layer_factory.hpp:77] Creating layer group1_block0_conv1
I0824 02:02:46.421277 115696 net.cpp:88] Creating Layer group1_block0_conv1
I0824 02:02:46.421281 115696 net.cpp:410] group1_block0_conv1 <- group1_block0_conv0_debug_auto_out
I0824 02:02:46.421288 115696 net.cpp:384] group1_block0_conv1 -> group1_block0_conv1
I0824 02:02:46.421692 115696 net.cpp:126] Setting up group1_block0_conv1
I0824 02:02:46.421700 115696 net.cpp:133] Top shape: 64 32 16 16 (524288)
I0824 02:02:46.421707 115696 net.cpp:141] Memory required for data: 206307584
I0824 02:02:46.421715 115696 layer_factory.hpp:77] Creating layer 
I0824 02:02:46.421720 115696 net.cpp:88] Creating Layer 
I0824 02:02:46.421725 115696 net.cpp:410]  <- group1_block0_conv1
I0824 02:02:46.421731 115696 net.cpp:384]  -> group1_block0_conv1_debug_auto_in
I0824 02:02:46.421741 115696 net.cpp:126] Setting up 
I0824 02:02:46.421746 115696 net.cpp:133] Top shape: 64 2 16 16 16 (524288)
I0824 02:02:46.421752 115696 net.cpp:141] Memory required for data: 208404736
I0824 02:02:46.421756 115696 layer_factory.hpp:77] Creating layer group1_block0_conv1_bn
I0824 02:02:46.421764 115696 net.cpp:88] Creating Layer group1_block0_conv1_bn
I0824 02:02:46.421769 115696 net.cpp:410] group1_block0_conv1_bn <- group1_block0_conv1_debug_auto_in
I0824 02:02:46.421775 115696 net.cpp:371] group1_block0_conv1_bn -> group1_block0_conv1_debug_auto_in (in-place)
I0824 02:02:46.421802 115696 net.cpp:126] Setting up group1_block0_conv1_bn
I0824 02:02:46.421806 115696 net.cpp:133] Top shape: 64 2 16 16 16 (524288)
I0824 02:02:46.421813 115696 net.cpp:141] Memory required for data: 210501888
I0824 02:02:46.421821 115696 layer_factory.hpp:77] Creating layer 
I0824 02:02:46.421828 115696 net.cpp:88] Creating Layer 
I0824 02:02:46.421833 115696 net.cpp:410]  <- group1_block0_conv1_debug_auto_in
I0824 02:02:46.421839 115696 net.cpp:384]  -> group1_block0_conv1_debug_auto_out
I0824 02:02:46.421846 115696 net.cpp:126] Setting up 
I0824 02:02:46.421851 115696 net.cpp:133] Top shape: 64 32 16 16 (524288)
I0824 02:02:46.421861 115696 net.cpp:141] Memory required for data: 212599040
I0824 02:02:46.421866 115696 layer_factory.hpp:77] Creating layer group1_block0_proj
I0824 02:02:46.421877 115696 net.cpp:88] Creating Layer group1_block0_proj
I0824 02:02:46.421883 115696 net.cpp:410] group1_block0_proj <- group0_block2_sum_group0_block2_relu_0_split_1
I0824 02:02:46.421898 115696 net.cpp:384] group1_block0_proj -> group1_block0_proj
I0824 02:02:46.421937 115696 net.cpp:126] Setting up group1_block0_proj
I0824 02:02:46.421942 115696 net.cpp:133] Top shape: 64 32 16 16 (524288)
I0824 02:02:46.421948 115696 net.cpp:141] Memory required for data: 214696192
I0824 02:02:46.421954 115696 layer_factory.hpp:77] Creating layer 
I0824 02:02:46.421960 115696 net.cpp:88] Creating Layer 
I0824 02:02:46.421965 115696 net.cpp:410]  <- group1_block0_proj
I0824 02:02:46.421975 115696 net.cpp:384]  -> group1_block0_proj_debug_auto_in
I0824 02:02:46.421983 115696 net.cpp:126] Setting up 
I0824 02:02:46.421988 115696 net.cpp:133] Top shape: 64 2 16 16 16 (524288)
I0824 02:02:46.421993 115696 net.cpp:141] Memory required for data: 216793344
I0824 02:02:46.421998 115696 layer_factory.hpp:77] Creating layer group1_block0_proj_bn
I0824 02:02:46.422005 115696 net.cpp:88] Creating Layer group1_block0_proj_bn
I0824 02:02:46.422011 115696 net.cpp:410] group1_block0_proj_bn <- group1_block0_proj_debug_auto_in
I0824 02:02:46.422020 115696 net.cpp:371] group1_block0_proj_bn -> group1_block0_proj_debug_auto_in (in-place)
I0824 02:02:46.422037 115696 net.cpp:126] Setting up group1_block0_proj_bn
I0824 02:02:46.422042 115696 net.cpp:133] Top shape: 64 2 16 16 16 (524288)
I0824 02:02:46.422049 115696 net.cpp:141] Memory required for data: 218890496
I0824 02:02:46.422057 115696 layer_factory.hpp:77] Creating layer 
I0824 02:02:46.422065 115696 net.cpp:88] Creating Layer 
I0824 02:02:46.422070 115696 net.cpp:410]  <- group1_block0_proj_debug_auto_in
I0824 02:02:46.422077 115696 net.cpp:384]  -> group1_block0_proj_debug_auto_out
I0824 02:02:46.422086 115696 net.cpp:126] Setting up 
I0824 02:02:46.422091 115696 net.cpp:133] Top shape: 64 32 16 16 (524288)
I0824 02:02:46.422096 115696 net.cpp:141] Memory required for data: 220987648
I0824 02:02:46.422101 115696 layer_factory.hpp:77] Creating layer group1_block0_sum
I0824 02:02:46.422109 115696 net.cpp:88] Creating Layer group1_block0_sum
I0824 02:02:46.422114 115696 net.cpp:410] group1_block0_sum <- group1_block0_proj_debug_auto_out
I0824 02:02:46.422120 115696 net.cpp:410] group1_block0_sum <- group1_block0_conv1_debug_auto_out
I0824 02:02:46.422127 115696 net.cpp:384] group1_block0_sum -> group1_block0_sum
I0824 02:02:46.422134 115696 net.cpp:126] Setting up group1_block0_sum
I0824 02:02:46.422139 115696 net.cpp:133] Top shape: 64 32 16 16 (524288)
I0824 02:02:46.422145 115696 net.cpp:141] Memory required for data: 223084800
I0824 02:02:46.422150 115696 layer_factory.hpp:77] Creating layer group1_block0_relu
I0824 02:02:46.422158 115696 net.cpp:88] Creating Layer group1_block0_relu
I0824 02:02:46.422164 115696 net.cpp:410] group1_block0_relu <- group1_block0_sum
I0824 02:02:46.422170 115696 net.cpp:371] group1_block0_relu -> group1_block0_sum (in-place)
I0824 02:02:46.422178 115696 net.cpp:126] Setting up group1_block0_relu
I0824 02:02:46.422181 115696 net.cpp:133] Top shape: 64 32 16 16 (524288)
I0824 02:02:46.422188 115696 net.cpp:141] Memory required for data: 225181952
I0824 02:02:46.422194 115696 layer_factory.hpp:77] Creating layer group1_block0_sum_group1_block0_relu_0_split
I0824 02:02:46.422200 115696 net.cpp:88] Creating Layer group1_block0_sum_group1_block0_relu_0_split
I0824 02:02:46.422205 115696 net.cpp:410] group1_block0_sum_group1_block0_relu_0_split <- group1_block0_sum
I0824 02:02:46.422211 115696 net.cpp:384] group1_block0_sum_group1_block0_relu_0_split -> group1_block0_sum_group1_block0_relu_0_split_0
I0824 02:02:46.422219 115696 net.cpp:384] group1_block0_sum_group1_block0_relu_0_split -> group1_block0_sum_group1_block0_relu_0_split_1
I0824 02:02:46.422228 115696 net.cpp:126] Setting up group1_block0_sum_group1_block0_relu_0_split
I0824 02:02:46.422238 115696 net.cpp:133] Top shape: 64 32 16 16 (524288)
I0824 02:02:46.422246 115696 net.cpp:133] Top shape: 64 32 16 16 (524288)
I0824 02:02:46.422252 115696 net.cpp:141] Memory required for data: 229376256
I0824 02:02:46.422257 115696 layer_factory.hpp:77] Creating layer group1_block1_conv0
I0824 02:02:46.422271 115696 net.cpp:88] Creating Layer group1_block1_conv0
I0824 02:02:46.422276 115696 net.cpp:410] group1_block1_conv0 <- group1_block0_sum_group1_block0_relu_0_split_0
I0824 02:02:46.422286 115696 net.cpp:384] group1_block1_conv0 -> group1_block1_conv0
I0824 02:02:46.422683 115696 net.cpp:126] Setting up group1_block1_conv0
I0824 02:02:46.422689 115696 net.cpp:133] Top shape: 64 32 16 16 (524288)
I0824 02:02:46.422696 115696 net.cpp:141] Memory required for data: 231473408
I0824 02:02:46.422703 115696 layer_factory.hpp:77] Creating layer 
I0824 02:02:46.422709 115696 net.cpp:88] Creating Layer 
I0824 02:02:46.422714 115696 net.cpp:410]  <- group1_block1_conv0
I0824 02:02:46.422722 115696 net.cpp:384]  -> group1_block1_conv0_debug_auto_in
I0824 02:02:46.422730 115696 net.cpp:126] Setting up 
I0824 02:02:46.422734 115696 net.cpp:133] Top shape: 64 2 16 16 16 (524288)
I0824 02:02:46.422740 115696 net.cpp:141] Memory required for data: 233570560
I0824 02:02:46.422745 115696 layer_factory.hpp:77] Creating layer group1_block1_conv0_bn
I0824 02:02:46.422752 115696 net.cpp:88] Creating Layer group1_block1_conv0_bn
I0824 02:02:46.422758 115696 net.cpp:410] group1_block1_conv0_bn <- group1_block1_conv0_debug_auto_in
I0824 02:02:46.422763 115696 net.cpp:371] group1_block1_conv0_bn -> group1_block1_conv0_debug_auto_in (in-place)
I0824 02:02:46.422785 115696 net.cpp:126] Setting up group1_block1_conv0_bn
I0824 02:02:46.422789 115696 net.cpp:133] Top shape: 64 2 16 16 16 (524288)
I0824 02:02:46.422796 115696 net.cpp:141] Memory required for data: 235667712
I0824 02:02:46.422809 115696 layer_factory.hpp:77] Creating layer 
I0824 02:02:46.422816 115696 net.cpp:88] Creating Layer 
I0824 02:02:46.422821 115696 net.cpp:410]  <- group1_block1_conv0_debug_auto_in
I0824 02:02:46.422827 115696 net.cpp:384]  -> group1_block1_conv0_debug_auto_out
I0824 02:02:46.422837 115696 net.cpp:126] Setting up 
I0824 02:02:46.422842 115696 net.cpp:133] Top shape: 64 32 16 16 (524288)
I0824 02:02:46.422848 115696 net.cpp:141] Memory required for data: 237764864
I0824 02:02:46.422853 115696 layer_factory.hpp:77] Creating layer group1_block1_conv0_relu
I0824 02:02:46.422860 115696 net.cpp:88] Creating Layer group1_block1_conv0_relu
I0824 02:02:46.422866 115696 net.cpp:410] group1_block1_conv0_relu <- group1_block1_conv0_debug_auto_out
I0824 02:02:46.422873 115696 net.cpp:371] group1_block1_conv0_relu -> group1_block1_conv0_debug_auto_out (in-place)
I0824 02:02:46.422880 115696 net.cpp:126] Setting up group1_block1_conv0_relu
I0824 02:02:46.422885 115696 net.cpp:133] Top shape: 64 32 16 16 (524288)
I0824 02:02:46.422891 115696 net.cpp:141] Memory required for data: 239862016
I0824 02:02:46.422896 115696 layer_factory.hpp:77] Creating layer group1_block1_conv1
I0824 02:02:46.422909 115696 net.cpp:88] Creating Layer group1_block1_conv1
I0824 02:02:46.422914 115696 net.cpp:410] group1_block1_conv1 <- group1_block1_conv0_debug_auto_out
I0824 02:02:46.422922 115696 net.cpp:384] group1_block1_conv1 -> group1_block1_conv1
I0824 02:02:46.423322 115696 net.cpp:126] Setting up group1_block1_conv1
I0824 02:02:46.423331 115696 net.cpp:133] Top shape: 64 32 16 16 (524288)
I0824 02:02:46.423337 115696 net.cpp:141] Memory required for data: 241959168
I0824 02:02:46.423343 115696 layer_factory.hpp:77] Creating layer 
I0824 02:02:46.423349 115696 net.cpp:88] Creating Layer 
I0824 02:02:46.423354 115696 net.cpp:410]  <- group1_block1_conv1
I0824 02:02:46.423362 115696 net.cpp:384]  -> group1_block1_conv1_debug_auto_in
I0824 02:02:46.423368 115696 net.cpp:126] Setting up 
I0824 02:02:46.423373 115696 net.cpp:133] Top shape: 64 2 16 16 16 (524288)
I0824 02:02:46.423380 115696 net.cpp:141] Memory required for data: 244056320
I0824 02:02:46.423389 115696 layer_factory.hpp:77] Creating layer group1_block1_conv1_bn
I0824 02:02:46.423396 115696 net.cpp:88] Creating Layer group1_block1_conv1_bn
I0824 02:02:46.423403 115696 net.cpp:410] group1_block1_conv1_bn <- group1_block1_conv1_debug_auto_in
I0824 02:02:46.423408 115696 net.cpp:371] group1_block1_conv1_bn -> group1_block1_conv1_debug_auto_in (in-place)
I0824 02:02:46.423430 115696 net.cpp:126] Setting up group1_block1_conv1_bn
I0824 02:02:46.423437 115696 net.cpp:133] Top shape: 64 2 16 16 16 (524288)
I0824 02:02:46.423444 115696 net.cpp:141] Memory required for data: 246153472
I0824 02:02:46.423452 115696 layer_factory.hpp:77] Creating layer 
I0824 02:02:46.423458 115696 net.cpp:88] Creating Layer 
I0824 02:02:46.423463 115696 net.cpp:410]  <- group1_block1_conv1_debug_auto_in
I0824 02:02:46.423470 115696 net.cpp:384]  -> group1_block1_conv1_debug_auto_out
I0824 02:02:46.423477 115696 net.cpp:126] Setting up 
I0824 02:02:46.423482 115696 net.cpp:133] Top shape: 64 32 16 16 (524288)
I0824 02:02:46.423487 115696 net.cpp:141] Memory required for data: 248250624
I0824 02:02:46.423492 115696 layer_factory.hpp:77] Creating layer group1_block1_sum
I0824 02:02:46.423498 115696 net.cpp:88] Creating Layer group1_block1_sum
I0824 02:02:46.423503 115696 net.cpp:410] group1_block1_sum <- group1_block1_conv1_debug_auto_out
I0824 02:02:46.423509 115696 net.cpp:410] group1_block1_sum <- group1_block0_sum_group1_block0_relu_0_split_1
I0824 02:02:46.423516 115696 net.cpp:384] group1_block1_sum -> group1_block1_sum
I0824 02:02:46.423523 115696 net.cpp:126] Setting up group1_block1_sum
I0824 02:02:46.423528 115696 net.cpp:133] Top shape: 64 32 16 16 (524288)
I0824 02:02:46.423534 115696 net.cpp:141] Memory required for data: 250347776
I0824 02:02:46.423539 115696 layer_factory.hpp:77] Creating layer group1_block1_relu
I0824 02:02:46.423545 115696 net.cpp:88] Creating Layer group1_block1_relu
I0824 02:02:46.423549 115696 net.cpp:410] group1_block1_relu <- group1_block1_sum
I0824 02:02:46.423555 115696 net.cpp:371] group1_block1_relu -> group1_block1_sum (in-place)
I0824 02:02:46.423563 115696 net.cpp:126] Setting up group1_block1_relu
I0824 02:02:46.423566 115696 net.cpp:133] Top shape: 64 32 16 16 (524288)
I0824 02:02:46.423573 115696 net.cpp:141] Memory required for data: 252444928
I0824 02:02:46.423578 115696 layer_factory.hpp:77] Creating layer group1_block1_sum_group1_block1_relu_0_split
I0824 02:02:46.423583 115696 net.cpp:88] Creating Layer group1_block1_sum_group1_block1_relu_0_split
I0824 02:02:46.423588 115696 net.cpp:410] group1_block1_sum_group1_block1_relu_0_split <- group1_block1_sum
I0824 02:02:46.423595 115696 net.cpp:384] group1_block1_sum_group1_block1_relu_0_split -> group1_block1_sum_group1_block1_relu_0_split_0
I0824 02:02:46.423602 115696 net.cpp:384] group1_block1_sum_group1_block1_relu_0_split -> group1_block1_sum_group1_block1_relu_0_split_1
I0824 02:02:46.423612 115696 net.cpp:126] Setting up group1_block1_sum_group1_block1_relu_0_split
I0824 02:02:46.423617 115696 net.cpp:133] Top shape: 64 32 16 16 (524288)
I0824 02:02:46.423624 115696 net.cpp:133] Top shape: 64 32 16 16 (524288)
I0824 02:02:46.423629 115696 net.cpp:141] Memory required for data: 256639232
I0824 02:02:46.423635 115696 layer_factory.hpp:77] Creating layer group1_block2_conv0
I0824 02:02:46.423645 115696 net.cpp:88] Creating Layer group1_block2_conv0
I0824 02:02:46.423650 115696 net.cpp:410] group1_block2_conv0 <- group1_block1_sum_group1_block1_relu_0_split_0
I0824 02:02:46.423658 115696 net.cpp:384] group1_block2_conv0 -> group1_block2_conv0
I0824 02:02:46.424058 115696 net.cpp:126] Setting up group1_block2_conv0
I0824 02:02:46.424067 115696 net.cpp:133] Top shape: 64 32 16 16 (524288)
I0824 02:02:46.424072 115696 net.cpp:141] Memory required for data: 258736384
I0824 02:02:46.424078 115696 layer_factory.hpp:77] Creating layer 
I0824 02:02:46.424088 115696 net.cpp:88] Creating Layer 
I0824 02:02:46.424093 115696 net.cpp:410]  <- group1_block2_conv0
I0824 02:02:46.424110 115696 net.cpp:384]  -> group1_block2_conv0_debug_auto_in
I0824 02:02:46.424136 115696 net.cpp:126] Setting up 
I0824 02:02:46.424146 115696 net.cpp:133] Top shape: 64 2 16 16 16 (524288)
I0824 02:02:46.424157 115696 net.cpp:141] Memory required for data: 260833536
I0824 02:02:46.424165 115696 layer_factory.hpp:77] Creating layer group1_block2_conv0_bn
I0824 02:02:46.424177 115696 net.cpp:88] Creating Layer group1_block2_conv0_bn
I0824 02:02:46.424191 115696 net.cpp:410] group1_block2_conv0_bn <- group1_block2_conv0_debug_auto_in
I0824 02:02:46.424198 115696 net.cpp:371] group1_block2_conv0_bn -> group1_block2_conv0_debug_auto_in (in-place)
I0824 02:02:46.424226 115696 net.cpp:126] Setting up group1_block2_conv0_bn
I0824 02:02:46.424232 115696 net.cpp:133] Top shape: 64 2 16 16 16 (524288)
I0824 02:02:46.424239 115696 net.cpp:141] Memory required for data: 262930688
I0824 02:02:46.424252 115696 layer_factory.hpp:77] Creating layer 
I0824 02:02:46.424258 115696 net.cpp:88] Creating Layer 
I0824 02:02:46.424263 115696 net.cpp:410]  <- group1_block2_conv0_debug_auto_in
I0824 02:02:46.424270 115696 net.cpp:384]  -> group1_block2_conv0_debug_auto_out
I0824 02:02:46.424278 115696 net.cpp:126] Setting up 
I0824 02:02:46.424283 115696 net.cpp:133] Top shape: 64 32 16 16 (524288)
I0824 02:02:46.424289 115696 net.cpp:141] Memory required for data: 265027840
I0824 02:02:46.424294 115696 layer_factory.hpp:77] Creating layer group1_block2_conv0_relu
I0824 02:02:46.424302 115696 net.cpp:88] Creating Layer group1_block2_conv0_relu
I0824 02:02:46.424309 115696 net.cpp:410] group1_block2_conv0_relu <- group1_block2_conv0_debug_auto_out
I0824 02:02:46.424314 115696 net.cpp:371] group1_block2_conv0_relu -> group1_block2_conv0_debug_auto_out (in-place)
I0824 02:02:46.424321 115696 net.cpp:126] Setting up group1_block2_conv0_relu
I0824 02:02:46.424326 115696 net.cpp:133] Top shape: 64 32 16 16 (524288)
I0824 02:02:46.424332 115696 net.cpp:141] Memory required for data: 267124992
I0824 02:02:46.424336 115696 layer_factory.hpp:77] Creating layer group1_block2_conv1
I0824 02:02:46.424347 115696 net.cpp:88] Creating Layer group1_block2_conv1
I0824 02:02:46.424352 115696 net.cpp:410] group1_block2_conv1 <- group1_block2_conv0_debug_auto_out
I0824 02:02:46.424361 115696 net.cpp:384] group1_block2_conv1 -> group1_block2_conv1
I0824 02:02:46.424758 115696 net.cpp:126] Setting up group1_block2_conv1
I0824 02:02:46.424768 115696 net.cpp:133] Top shape: 64 32 16 16 (524288)
I0824 02:02:46.424775 115696 net.cpp:141] Memory required for data: 269222144
I0824 02:02:46.424782 115696 layer_factory.hpp:77] Creating layer 
I0824 02:02:46.424788 115696 net.cpp:88] Creating Layer 
I0824 02:02:46.424794 115696 net.cpp:410]  <- group1_block2_conv1
I0824 02:02:46.424800 115696 net.cpp:384]  -> group1_block2_conv1_debug_auto_in
I0824 02:02:46.424808 115696 net.cpp:126] Setting up 
I0824 02:02:46.424813 115696 net.cpp:133] Top shape: 64 2 16 16 16 (524288)
I0824 02:02:46.424819 115696 net.cpp:141] Memory required for data: 271319296
I0824 02:02:46.424823 115696 layer_factory.hpp:77] Creating layer group1_block2_conv1_bn
I0824 02:02:46.424832 115696 net.cpp:88] Creating Layer group1_block2_conv1_bn
I0824 02:02:46.424837 115696 net.cpp:410] group1_block2_conv1_bn <- group1_block2_conv1_debug_auto_in
I0824 02:02:46.424844 115696 net.cpp:371] group1_block2_conv1_bn -> group1_block2_conv1_debug_auto_in (in-place)
I0824 02:02:46.424861 115696 net.cpp:126] Setting up group1_block2_conv1_bn
I0824 02:02:46.424867 115696 net.cpp:133] Top shape: 64 2 16 16 16 (524288)
I0824 02:02:46.424873 115696 net.cpp:141] Memory required for data: 273416448
I0824 02:02:46.424882 115696 layer_factory.hpp:77] Creating layer 
I0824 02:02:46.424888 115696 net.cpp:88] Creating Layer 
I0824 02:02:46.424893 115696 net.cpp:410]  <- group1_block2_conv1_debug_auto_in
I0824 02:02:46.424901 115696 net.cpp:384]  -> group1_block2_conv1_debug_auto_out
I0824 02:02:46.424909 115696 net.cpp:126] Setting up 
I0824 02:02:46.424914 115696 net.cpp:133] Top shape: 64 32 16 16 (524288)
I0824 02:02:46.424921 115696 net.cpp:141] Memory required for data: 275513600
I0824 02:02:46.424929 115696 layer_factory.hpp:77] Creating layer group1_block2_sum
I0824 02:02:46.424935 115696 net.cpp:88] Creating Layer group1_block2_sum
I0824 02:02:46.424940 115696 net.cpp:410] group1_block2_sum <- group1_block2_conv1_debug_auto_out
I0824 02:02:46.424947 115696 net.cpp:410] group1_block2_sum <- group1_block1_sum_group1_block1_relu_0_split_1
I0824 02:02:46.424960 115696 net.cpp:384] group1_block2_sum -> group1_block2_sum
I0824 02:02:46.424969 115696 net.cpp:126] Setting up group1_block2_sum
I0824 02:02:46.424975 115696 net.cpp:133] Top shape: 64 32 16 16 (524288)
I0824 02:02:46.424981 115696 net.cpp:141] Memory required for data: 277610752
I0824 02:02:46.424985 115696 layer_factory.hpp:77] Creating layer group1_block2_relu
I0824 02:02:46.424993 115696 net.cpp:88] Creating Layer group1_block2_relu
I0824 02:02:46.424998 115696 net.cpp:410] group1_block2_relu <- group1_block2_sum
I0824 02:02:46.425004 115696 net.cpp:371] group1_block2_relu -> group1_block2_sum (in-place)
I0824 02:02:46.425011 115696 net.cpp:126] Setting up group1_block2_relu
I0824 02:02:46.425016 115696 net.cpp:133] Top shape: 64 32 16 16 (524288)
I0824 02:02:46.425022 115696 net.cpp:141] Memory required for data: 279707904
I0824 02:02:46.425026 115696 layer_factory.hpp:77] Creating layer group1_block2_sum_group1_block2_relu_0_split
I0824 02:02:46.425034 115696 net.cpp:88] Creating Layer group1_block2_sum_group1_block2_relu_0_split
I0824 02:02:46.425038 115696 net.cpp:410] group1_block2_sum_group1_block2_relu_0_split <- group1_block2_sum
I0824 02:02:46.425045 115696 net.cpp:384] group1_block2_sum_group1_block2_relu_0_split -> group1_block2_sum_group1_block2_relu_0_split_0
I0824 02:02:46.425053 115696 net.cpp:384] group1_block2_sum_group1_block2_relu_0_split -> group1_block2_sum_group1_block2_relu_0_split_1
I0824 02:02:46.425061 115696 net.cpp:126] Setting up group1_block2_sum_group1_block2_relu_0_split
I0824 02:02:46.425066 115696 net.cpp:133] Top shape: 64 32 16 16 (524288)
I0824 02:02:46.425073 115696 net.cpp:133] Top shape: 64 32 16 16 (524288)
I0824 02:02:46.425078 115696 net.cpp:141] Memory required for data: 283902208
I0824 02:02:46.425083 115696 layer_factory.hpp:77] Creating layer group2_block0_conv0
I0824 02:02:46.425097 115696 net.cpp:88] Creating Layer group2_block0_conv0
I0824 02:02:46.425103 115696 net.cpp:410] group2_block0_conv0 <- group1_block2_sum_group1_block2_relu_0_split_0
I0824 02:02:46.425113 115696 net.cpp:384] group2_block0_conv0 -> group2_block0_conv0
I0824 02:02:46.425897 115696 net.cpp:126] Setting up group2_block0_conv0
I0824 02:02:46.425906 115696 net.cpp:133] Top shape: 64 64 8 8 (262144)
I0824 02:02:46.425912 115696 net.cpp:141] Memory required for data: 284950784
I0824 02:02:46.425920 115696 layer_factory.hpp:77] Creating layer 
I0824 02:02:46.425927 115696 net.cpp:88] Creating Layer 
I0824 02:02:46.425932 115696 net.cpp:410]  <- group2_block0_conv0
I0824 02:02:46.425940 115696 net.cpp:384]  -> group2_block0_conv0_debug_auto_in
I0824 02:02:46.425949 115696 net.cpp:126] Setting up 
I0824 02:02:46.425956 115696 net.cpp:133] Top shape: 64 4 8 8 16 (262144)
I0824 02:02:46.425963 115696 net.cpp:141] Memory required for data: 285999360
I0824 02:02:46.425969 115696 layer_factory.hpp:77] Creating layer group2_block0_conv0_bn
I0824 02:02:46.425976 115696 net.cpp:88] Creating Layer group2_block0_conv0_bn
I0824 02:02:46.425981 115696 net.cpp:410] group2_block0_conv0_bn <- group2_block0_conv0_debug_auto_in
I0824 02:02:46.425987 115696 net.cpp:371] group2_block0_conv0_bn -> group2_block0_conv0_debug_auto_in (in-place)
I0824 02:02:46.426004 115696 net.cpp:126] Setting up group2_block0_conv0_bn
I0824 02:02:46.426010 115696 net.cpp:133] Top shape: 64 4 8 8 16 (262144)
I0824 02:02:46.426017 115696 net.cpp:141] Memory required for data: 287047936
I0824 02:02:46.426026 115696 layer_factory.hpp:77] Creating layer 
I0824 02:02:46.426033 115696 net.cpp:88] Creating Layer 
I0824 02:02:46.426038 115696 net.cpp:410]  <- group2_block0_conv0_debug_auto_in
I0824 02:02:46.426044 115696 net.cpp:384]  -> group2_block0_conv0_debug_auto_out
I0824 02:02:46.426057 115696 net.cpp:126] Setting up 
I0824 02:02:46.426062 115696 net.cpp:133] Top shape: 64 64 8 8 (262144)
I0824 02:02:46.426069 115696 net.cpp:141] Memory required for data: 288096512
I0824 02:02:46.426074 115696 layer_factory.hpp:77] Creating layer group2_block0_conv0_relu
I0824 02:02:46.426081 115696 net.cpp:88] Creating Layer group2_block0_conv0_relu
I0824 02:02:46.426092 115696 net.cpp:410] group2_block0_conv0_relu <- group2_block0_conv0_debug_auto_out
I0824 02:02:46.426098 115696 net.cpp:371] group2_block0_conv0_relu -> group2_block0_conv0_debug_auto_out (in-place)
I0824 02:02:46.426105 115696 net.cpp:126] Setting up group2_block0_conv0_relu
I0824 02:02:46.426110 115696 net.cpp:133] Top shape: 64 64 8 8 (262144)
I0824 02:02:46.426116 115696 net.cpp:141] Memory required for data: 289145088
I0824 02:02:46.426121 115696 layer_factory.hpp:77] Creating layer group2_block0_conv1
I0824 02:02:46.426131 115696 net.cpp:88] Creating Layer group2_block0_conv1
I0824 02:02:46.426136 115696 net.cpp:410] group2_block0_conv1 <- group2_block0_conv0_debug_auto_out
I0824 02:02:46.426146 115696 net.cpp:384] group2_block0_conv1 -> group2_block0_conv1
I0824 02:02:46.427708 115696 net.cpp:126] Setting up group2_block0_conv1
I0824 02:02:46.427721 115696 net.cpp:133] Top shape: 64 64 8 8 (262144)
I0824 02:02:46.427727 115696 net.cpp:141] Memory required for data: 290193664
I0824 02:02:46.427733 115696 layer_factory.hpp:77] Creating layer 
I0824 02:02:46.427740 115696 net.cpp:88] Creating Layer 
I0824 02:02:46.427745 115696 net.cpp:410]  <- group2_block0_conv1
I0824 02:02:46.427752 115696 net.cpp:384]  -> group2_block0_conv1_debug_auto_in
I0824 02:02:46.427759 115696 net.cpp:126] Setting up 
I0824 02:02:46.427764 115696 net.cpp:133] Top shape: 64 4 8 8 16 (262144)
I0824 02:02:46.427772 115696 net.cpp:141] Memory required for data: 291242240
I0824 02:02:46.427776 115696 layer_factory.hpp:77] Creating layer group2_block0_conv1_bn
I0824 02:02:46.427783 115696 net.cpp:88] Creating Layer group2_block0_conv1_bn
I0824 02:02:46.427788 115696 net.cpp:410] group2_block0_conv1_bn <- group2_block0_conv1_debug_auto_in
I0824 02:02:46.427793 115696 net.cpp:371] group2_block0_conv1_bn -> group2_block0_conv1_debug_auto_in (in-place)
I0824 02:02:46.427810 115696 net.cpp:126] Setting up group2_block0_conv1_bn
I0824 02:02:46.427816 115696 net.cpp:133] Top shape: 64 4 8 8 16 (262144)
I0824 02:02:46.427822 115696 net.cpp:141] Memory required for data: 292290816
I0824 02:02:46.427836 115696 layer_factory.hpp:77] Creating layer 
I0824 02:02:46.427845 115696 net.cpp:88] Creating Layer 
I0824 02:02:46.427852 115696 net.cpp:410]  <- group2_block0_conv1_debug_auto_in
I0824 02:02:46.427868 115696 net.cpp:384]  -> group2_block0_conv1_debug_auto_out
I0824 02:02:46.427878 115696 net.cpp:126] Setting up 
I0824 02:02:46.427883 115696 net.cpp:133] Top shape: 64 64 8 8 (262144)
I0824 02:02:46.427891 115696 net.cpp:141] Memory required for data: 293339392
I0824 02:02:46.427896 115696 layer_factory.hpp:77] Creating layer group2_block0_proj
I0824 02:02:46.427908 115696 net.cpp:88] Creating Layer group2_block0_proj
I0824 02:02:46.427914 115696 net.cpp:410] group2_block0_proj <- group1_block2_sum_group1_block2_relu_0_split_1
I0824 02:02:46.427922 115696 net.cpp:384] group2_block0_proj -> group2_block0_proj
I0824 02:02:46.428026 115696 net.cpp:126] Setting up group2_block0_proj
I0824 02:02:46.428032 115696 net.cpp:133] Top shape: 64 64 8 8 (262144)
I0824 02:02:46.428038 115696 net.cpp:141] Memory required for data: 294387968
I0824 02:02:46.428045 115696 layer_factory.hpp:77] Creating layer 
I0824 02:02:46.428050 115696 net.cpp:88] Creating Layer 
I0824 02:02:46.428056 115696 net.cpp:410]  <- group2_block0_proj
I0824 02:02:46.428062 115696 net.cpp:384]  -> group2_block0_proj_debug_auto_in
I0824 02:02:46.428069 115696 net.cpp:126] Setting up 
I0824 02:02:46.428076 115696 net.cpp:133] Top shape: 64 4 8 8 16 (262144)
I0824 02:02:46.428081 115696 net.cpp:141] Memory required for data: 295436544
I0824 02:02:46.428086 115696 layer_factory.hpp:77] Creating layer group2_block0_proj_bn
I0824 02:02:46.428120 115696 net.cpp:88] Creating Layer group2_block0_proj_bn
I0824 02:02:46.428133 115696 net.cpp:410] group2_block0_proj_bn <- group2_block0_proj_debug_auto_in
I0824 02:02:46.428148 115696 net.cpp:371] group2_block0_proj_bn -> group2_block0_proj_debug_auto_in (in-place)
I0824 02:02:46.428184 115696 net.cpp:126] Setting up group2_block0_proj_bn
I0824 02:02:46.428191 115696 net.cpp:133] Top shape: 64 4 8 8 16 (262144)
I0824 02:02:46.428197 115696 net.cpp:141] Memory required for data: 296485120
I0824 02:02:46.428207 115696 layer_factory.hpp:77] Creating layer 
I0824 02:02:46.428213 115696 net.cpp:88] Creating Layer 
I0824 02:02:46.428218 115696 net.cpp:410]  <- group2_block0_proj_debug_auto_in
I0824 02:02:46.428225 115696 net.cpp:384]  -> group2_block0_proj_debug_auto_out
I0824 02:02:46.428232 115696 net.cpp:126] Setting up 
I0824 02:02:46.428237 115696 net.cpp:133] Top shape: 64 64 8 8 (262144)
I0824 02:02:46.428243 115696 net.cpp:141] Memory required for data: 297533696
I0824 02:02:46.428247 115696 layer_factory.hpp:77] Creating layer group2_block0_sum
I0824 02:02:46.428254 115696 net.cpp:88] Creating Layer group2_block0_sum
I0824 02:02:46.428259 115696 net.cpp:410] group2_block0_sum <- group2_block0_proj_debug_auto_out
I0824 02:02:46.428267 115696 net.cpp:410] group2_block0_sum <- group2_block0_conv1_debug_auto_out
I0824 02:02:46.428273 115696 net.cpp:384] group2_block0_sum -> group2_block0_sum
I0824 02:02:46.428282 115696 net.cpp:126] Setting up group2_block0_sum
I0824 02:02:46.428287 115696 net.cpp:133] Top shape: 64 64 8 8 (262144)
I0824 02:02:46.428292 115696 net.cpp:141] Memory required for data: 298582272
I0824 02:02:46.428297 115696 layer_factory.hpp:77] Creating layer group2_block0_relu
I0824 02:02:46.428303 115696 net.cpp:88] Creating Layer group2_block0_relu
I0824 02:02:46.428308 115696 net.cpp:410] group2_block0_relu <- group2_block0_sum
I0824 02:02:46.428314 115696 net.cpp:371] group2_block0_relu -> group2_block0_sum (in-place)
I0824 02:02:46.428320 115696 net.cpp:126] Setting up group2_block0_relu
I0824 02:02:46.428325 115696 net.cpp:133] Top shape: 64 64 8 8 (262144)
I0824 02:02:46.428330 115696 net.cpp:141] Memory required for data: 299630848
I0824 02:02:46.428335 115696 layer_factory.hpp:77] Creating layer group2_block0_sum_group2_block0_relu_0_split
I0824 02:02:46.428341 115696 net.cpp:88] Creating Layer group2_block0_sum_group2_block0_relu_0_split
I0824 02:02:46.428346 115696 net.cpp:410] group2_block0_sum_group2_block0_relu_0_split <- group2_block0_sum
I0824 02:02:46.428355 115696 net.cpp:384] group2_block0_sum_group2_block0_relu_0_split -> group2_block0_sum_group2_block0_relu_0_split_0
I0824 02:02:46.428362 115696 net.cpp:384] group2_block0_sum_group2_block0_relu_0_split -> group2_block0_sum_group2_block0_relu_0_split_1
I0824 02:02:46.428370 115696 net.cpp:126] Setting up group2_block0_sum_group2_block0_relu_0_split
I0824 02:02:46.428375 115696 net.cpp:133] Top shape: 64 64 8 8 (262144)
I0824 02:02:46.428383 115696 net.cpp:133] Top shape: 64 64 8 8 (262144)
I0824 02:02:46.428390 115696 net.cpp:141] Memory required for data: 301728000
I0824 02:02:46.428395 115696 layer_factory.hpp:77] Creating layer group2_block1_conv0
I0824 02:02:46.428406 115696 net.cpp:88] Creating Layer group2_block1_conv0
I0824 02:02:46.428411 115696 net.cpp:410] group2_block1_conv0 <- group2_block0_sum_group2_block0_relu_0_split_0
I0824 02:02:46.428421 115696 net.cpp:384] group2_block1_conv0 -> group2_block1_conv0
I0824 02:02:46.429803 115696 net.cpp:126] Setting up group2_block1_conv0
I0824 02:02:46.429812 115696 net.cpp:133] Top shape: 64 64 8 8 (262144)
I0824 02:02:46.429817 115696 net.cpp:141] Memory required for data: 302776576
I0824 02:02:46.429822 115696 layer_factory.hpp:77] Creating layer 
I0824 02:02:46.429826 115696 net.cpp:88] Creating Layer 
I0824 02:02:46.429831 115696 net.cpp:410]  <- group2_block1_conv0
I0824 02:02:46.429834 115696 net.cpp:384]  -> group2_block1_conv0_debug_auto_in
I0824 02:02:46.429841 115696 net.cpp:126] Setting up 
I0824 02:02:46.429843 115696 net.cpp:133] Top shape: 64 4 8 8 16 (262144)
I0824 02:02:46.429852 115696 net.cpp:141] Memory required for data: 303825152
I0824 02:02:46.429854 115696 layer_factory.hpp:77] Creating layer group2_block1_conv0_bn
I0824 02:02:46.429859 115696 net.cpp:88] Creating Layer group2_block1_conv0_bn
I0824 02:02:46.429862 115696 net.cpp:410] group2_block1_conv0_bn <- group2_block1_conv0_debug_auto_in
I0824 02:02:46.429875 115696 net.cpp:371] group2_block1_conv0_bn -> group2_block1_conv0_debug_auto_in (in-place)
I0824 02:02:46.429888 115696 net.cpp:126] Setting up group2_block1_conv0_bn
I0824 02:02:46.429893 115696 net.cpp:133] Top shape: 64 4 8 8 16 (262144)
I0824 02:02:46.429896 115696 net.cpp:141] Memory required for data: 304873728
I0824 02:02:46.429903 115696 layer_factory.hpp:77] Creating layer 
I0824 02:02:46.429908 115696 net.cpp:88] Creating Layer 
I0824 02:02:46.429911 115696 net.cpp:410]  <- group2_block1_conv0_debug_auto_in
I0824 02:02:46.429915 115696 net.cpp:384]  -> group2_block1_conv0_debug_auto_out
I0824 02:02:46.429920 115696 net.cpp:126] Setting up 
I0824 02:02:46.429924 115696 net.cpp:133] Top shape: 64 64 8 8 (262144)
I0824 02:02:46.429929 115696 net.cpp:141] Memory required for data: 305922304
I0824 02:02:46.429931 115696 layer_factory.hpp:77] Creating layer group2_block1_conv0_relu
I0824 02:02:46.429935 115696 net.cpp:88] Creating Layer group2_block1_conv0_relu
I0824 02:02:46.429939 115696 net.cpp:410] group2_block1_conv0_relu <- group2_block1_conv0_debug_auto_out
I0824 02:02:46.429944 115696 net.cpp:371] group2_block1_conv0_relu -> group2_block1_conv0_debug_auto_out (in-place)
I0824 02:02:46.429947 115696 net.cpp:126] Setting up group2_block1_conv0_relu
I0824 02:02:46.429950 115696 net.cpp:133] Top shape: 64 64 8 8 (262144)
I0824 02:02:46.429955 115696 net.cpp:141] Memory required for data: 306970880
I0824 02:02:46.429958 115696 layer_factory.hpp:77] Creating layer group2_block1_conv1
I0824 02:02:46.429965 115696 net.cpp:88] Creating Layer group2_block1_conv1
I0824 02:02:46.429970 115696 net.cpp:410] group2_block1_conv1 <- group2_block1_conv0_debug_auto_out
I0824 02:02:46.429975 115696 net.cpp:384] group2_block1_conv1 -> group2_block1_conv1
I0824 02:02:46.431008 115696 net.cpp:126] Setting up group2_block1_conv1
I0824 02:02:46.431016 115696 net.cpp:133] Top shape: 64 64 8 8 (262144)
I0824 02:02:46.431021 115696 net.cpp:141] Memory required for data: 308019456
I0824 02:02:46.431025 115696 layer_factory.hpp:77] Creating layer 
I0824 02:02:46.431030 115696 net.cpp:88] Creating Layer 
I0824 02:02:46.431033 115696 net.cpp:410]  <- group2_block1_conv1
I0824 02:02:46.431037 115696 net.cpp:384]  -> group2_block1_conv1_debug_auto_in
I0824 02:02:46.431043 115696 net.cpp:126] Setting up 
I0824 02:02:46.431046 115696 net.cpp:133] Top shape: 64 4 8 8 16 (262144)
I0824 02:02:46.431051 115696 net.cpp:141] Memory required for data: 309068032
I0824 02:02:46.431053 115696 layer_factory.hpp:77] Creating layer group2_block1_conv1_bn
I0824 02:02:46.431059 115696 net.cpp:88] Creating Layer group2_block1_conv1_bn
I0824 02:02:46.431067 115696 net.cpp:410] group2_block1_conv1_bn <- group2_block1_conv1_debug_auto_in
I0824 02:02:46.431071 115696 net.cpp:371] group2_block1_conv1_bn -> group2_block1_conv1_debug_auto_in (in-place)
I0824 02:02:46.431084 115696 net.cpp:126] Setting up group2_block1_conv1_bn
I0824 02:02:46.431088 115696 net.cpp:133] Top shape: 64 4 8 8 16 (262144)
I0824 02:02:46.431092 115696 net.cpp:141] Memory required for data: 310116608
I0824 02:02:46.431098 115696 layer_factory.hpp:77] Creating layer 
I0824 02:02:46.431102 115696 net.cpp:88] Creating Layer 
I0824 02:02:46.431105 115696 net.cpp:410]  <- group2_block1_conv1_debug_auto_in
I0824 02:02:46.431110 115696 net.cpp:384]  -> group2_block1_conv1_debug_auto_out
I0824 02:02:46.431115 115696 net.cpp:126] Setting up 
I0824 02:02:46.431119 115696 net.cpp:133] Top shape: 64 64 8 8 (262144)
I0824 02:02:46.431123 115696 net.cpp:141] Memory required for data: 311165184
I0824 02:02:46.431126 115696 layer_factory.hpp:77] Creating layer group2_block1_sum
I0824 02:02:46.431131 115696 net.cpp:88] Creating Layer group2_block1_sum
I0824 02:02:46.431138 115696 net.cpp:410] group2_block1_sum <- group2_block1_conv1_debug_auto_out
I0824 02:02:46.431143 115696 net.cpp:410] group2_block1_sum <- group2_block0_sum_group2_block0_relu_0_split_1
I0824 02:02:46.431154 115696 net.cpp:384] group2_block1_sum -> group2_block1_sum
I0824 02:02:46.431164 115696 net.cpp:126] Setting up group2_block1_sum
I0824 02:02:46.431167 115696 net.cpp:133] Top shape: 64 64 8 8 (262144)
I0824 02:02:46.431171 115696 net.cpp:141] Memory required for data: 312213760
I0824 02:02:46.431174 115696 layer_factory.hpp:77] Creating layer group2_block1_relu
I0824 02:02:46.431180 115696 net.cpp:88] Creating Layer group2_block1_relu
I0824 02:02:46.431182 115696 net.cpp:410] group2_block1_relu <- group2_block1_sum
I0824 02:02:46.431186 115696 net.cpp:371] group2_block1_relu -> group2_block1_sum (in-place)
I0824 02:02:46.431190 115696 net.cpp:126] Setting up group2_block1_relu
I0824 02:02:46.431193 115696 net.cpp:133] Top shape: 64 64 8 8 (262144)
I0824 02:02:46.431197 115696 net.cpp:141] Memory required for data: 313262336
I0824 02:02:46.431200 115696 layer_factory.hpp:77] Creating layer group2_block1_sum_group2_block1_relu_0_split
I0824 02:02:46.431205 115696 net.cpp:88] Creating Layer group2_block1_sum_group2_block1_relu_0_split
I0824 02:02:46.431208 115696 net.cpp:410] group2_block1_sum_group2_block1_relu_0_split <- group2_block1_sum
I0824 02:02:46.431212 115696 net.cpp:384] group2_block1_sum_group2_block1_relu_0_split -> group2_block1_sum_group2_block1_relu_0_split_0
I0824 02:02:46.431218 115696 net.cpp:384] group2_block1_sum_group2_block1_relu_0_split -> group2_block1_sum_group2_block1_relu_0_split_1
I0824 02:02:46.431224 115696 net.cpp:126] Setting up group2_block1_sum_group2_block1_relu_0_split
I0824 02:02:46.431228 115696 net.cpp:133] Top shape: 64 64 8 8 (262144)
I0824 02:02:46.431232 115696 net.cpp:133] Top shape: 64 64 8 8 (262144)
I0824 02:02:46.431236 115696 net.cpp:141] Memory required for data: 315359488
I0824 02:02:46.431239 115696 layer_factory.hpp:77] Creating layer group2_block2_conv0
I0824 02:02:46.431247 115696 net.cpp:88] Creating Layer group2_block2_conv0
I0824 02:02:46.431252 115696 net.cpp:410] group2_block2_conv0 <- group2_block1_sum_group2_block1_relu_0_split_0
I0824 02:02:46.431257 115696 net.cpp:384] group2_block2_conv0 -> group2_block2_conv0
I0824 02:02:46.432327 115696 net.cpp:126] Setting up group2_block2_conv0
I0824 02:02:46.432339 115696 net.cpp:133] Top shape: 64 64 8 8 (262144)
I0824 02:02:46.432343 115696 net.cpp:141] Memory required for data: 316408064
I0824 02:02:46.432348 115696 layer_factory.hpp:77] Creating layer 
I0824 02:02:46.432353 115696 net.cpp:88] Creating Layer 
I0824 02:02:46.432356 115696 net.cpp:410]  <- group2_block2_conv0
I0824 02:02:46.432360 115696 net.cpp:384]  -> group2_block2_conv0_debug_auto_in
I0824 02:02:46.432365 115696 net.cpp:126] Setting up 
I0824 02:02:46.432369 115696 net.cpp:133] Top shape: 64 4 8 8 16 (262144)
I0824 02:02:46.432374 115696 net.cpp:141] Memory required for data: 317456640
I0824 02:02:46.432376 115696 layer_factory.hpp:77] Creating layer group2_block2_conv0_bn
I0824 02:02:46.432381 115696 net.cpp:88] Creating Layer group2_block2_conv0_bn
I0824 02:02:46.432384 115696 net.cpp:410] group2_block2_conv0_bn <- group2_block2_conv0_debug_auto_in
I0824 02:02:46.432390 115696 net.cpp:371] group2_block2_conv0_bn -> group2_block2_conv0_debug_auto_in (in-place)
I0824 02:02:46.432407 115696 net.cpp:126] Setting up group2_block2_conv0_bn
I0824 02:02:46.432411 115696 net.cpp:133] Top shape: 64 4 8 8 16 (262144)
I0824 02:02:46.432415 115696 net.cpp:141] Memory required for data: 318505216
I0824 02:02:46.432421 115696 layer_factory.hpp:77] Creating layer 
I0824 02:02:46.432425 115696 net.cpp:88] Creating Layer 
I0824 02:02:46.432428 115696 net.cpp:410]  <- group2_block2_conv0_debug_auto_in
I0824 02:02:46.432435 115696 net.cpp:384]  -> group2_block2_conv0_debug_auto_out
I0824 02:02:46.432440 115696 net.cpp:126] Setting up 
I0824 02:02:46.432443 115696 net.cpp:133] Top shape: 64 64 8 8 (262144)
I0824 02:02:46.432451 115696 net.cpp:141] Memory required for data: 319553792
I0824 02:02:46.432456 115696 layer_factory.hpp:77] Creating layer group2_block2_conv0_relu
I0824 02:02:46.432459 115696 net.cpp:88] Creating Layer group2_block2_conv0_relu
I0824 02:02:46.432463 115696 net.cpp:410] group2_block2_conv0_relu <- group2_block2_conv0_debug_auto_out
I0824 02:02:46.432471 115696 net.cpp:371] group2_block2_conv0_relu -> group2_block2_conv0_debug_auto_out (in-place)
I0824 02:02:46.432476 115696 net.cpp:126] Setting up group2_block2_conv0_relu
I0824 02:02:46.432480 115696 net.cpp:133] Top shape: 64 64 8 8 (262144)
I0824 02:02:46.432484 115696 net.cpp:141] Memory required for data: 320602368
I0824 02:02:46.432487 115696 layer_factory.hpp:77] Creating layer group2_block2_conv1
I0824 02:02:46.432495 115696 net.cpp:88] Creating Layer group2_block2_conv1
I0824 02:02:46.432498 115696 net.cpp:410] group2_block2_conv1 <- group2_block2_conv0_debug_auto_out
I0824 02:02:46.432503 115696 net.cpp:384] group2_block2_conv1 -> group2_block2_conv1
I0824 02:02:46.433538 115696 net.cpp:126] Setting up group2_block2_conv1
I0824 02:02:46.433547 115696 net.cpp:133] Top shape: 64 64 8 8 (262144)
I0824 02:02:46.433552 115696 net.cpp:141] Memory required for data: 321650944
I0824 02:02:46.433557 115696 layer_factory.hpp:77] Creating layer 
I0824 02:02:46.433562 115696 net.cpp:88] Creating Layer 
I0824 02:02:46.433566 115696 net.cpp:410]  <- group2_block2_conv1
I0824 02:02:46.433570 115696 net.cpp:384]  -> group2_block2_conv1_debug_auto_in
I0824 02:02:46.433575 115696 net.cpp:126] Setting up 
I0824 02:02:46.433579 115696 net.cpp:133] Top shape: 64 4 8 8 16 (262144)
I0824 02:02:46.433583 115696 net.cpp:141] Memory required for data: 322699520
I0824 02:02:46.433586 115696 layer_factory.hpp:77] Creating layer group2_block2_conv1_bn
I0824 02:02:46.433593 115696 net.cpp:88] Creating Layer group2_block2_conv1_bn
I0824 02:02:46.433595 115696 net.cpp:410] group2_block2_conv1_bn <- group2_block2_conv1_debug_auto_in
I0824 02:02:46.433601 115696 net.cpp:371] group2_block2_conv1_bn -> group2_block2_conv1_debug_auto_in (in-place)
I0824 02:02:46.433615 115696 net.cpp:126] Setting up group2_block2_conv1_bn
I0824 02:02:46.433619 115696 net.cpp:133] Top shape: 64 4 8 8 16 (262144)
I0824 02:02:46.433624 115696 net.cpp:141] Memory required for data: 323748096
I0824 02:02:46.433629 115696 layer_factory.hpp:77] Creating layer 
I0824 02:02:46.433634 115696 net.cpp:88] Creating Layer 
I0824 02:02:46.433636 115696 net.cpp:410]  <- group2_block2_conv1_debug_auto_in
I0824 02:02:46.433641 115696 net.cpp:384]  -> group2_block2_conv1_debug_auto_out
I0824 02:02:46.433646 115696 net.cpp:126] Setting up 
I0824 02:02:46.433650 115696 net.cpp:133] Top shape: 64 64 8 8 (262144)
I0824 02:02:46.433655 115696 net.cpp:141] Memory required for data: 324796672
I0824 02:02:46.433657 115696 layer_factory.hpp:77] Creating layer group2_block2_sum
I0824 02:02:46.433662 115696 net.cpp:88] Creating Layer group2_block2_sum
I0824 02:02:46.433665 115696 net.cpp:410] group2_block2_sum <- group2_block2_conv1_debug_auto_out
I0824 02:02:46.433670 115696 net.cpp:410] group2_block2_sum <- group2_block1_sum_group2_block1_relu_0_split_1
I0824 02:02:46.433676 115696 net.cpp:384] group2_block2_sum -> group2_block2_sum
I0824 02:02:46.433681 115696 net.cpp:126] Setting up group2_block2_sum
I0824 02:02:46.433684 115696 net.cpp:133] Top shape: 64 64 8 8 (262144)
I0824 02:02:46.433689 115696 net.cpp:141] Memory required for data: 325845248
I0824 02:02:46.433692 115696 layer_factory.hpp:77] Creating layer group2_block2_relu
I0824 02:02:46.433696 115696 net.cpp:88] Creating Layer group2_block2_relu
I0824 02:02:46.433701 115696 net.cpp:410] group2_block2_relu <- group2_block2_sum
I0824 02:02:46.433706 115696 net.cpp:371] group2_block2_relu -> group2_block2_sum (in-place)
I0824 02:02:46.433710 115696 net.cpp:126] Setting up group2_block2_relu
I0824 02:02:46.433713 115696 net.cpp:133] Top shape: 64 64 8 8 (262144)
I0824 02:02:46.433717 115696 net.cpp:141] Memory required for data: 326893824
I0824 02:02:46.433724 115696 layer_factory.hpp:77] Creating layer 
I0824 02:02:46.433728 115696 net.cpp:88] Creating Layer 
I0824 02:02:46.433732 115696 net.cpp:410]  <- group2_block2_sum
I0824 02:02:46.433737 115696 net.cpp:384]  -> group2_block2_sum_debug_auto_in
I0824 02:02:46.433743 115696 net.cpp:126] Setting up 
I0824 02:02:46.433748 115696 net.cpp:133] Top shape: 64 4 8 8 16 (262144)
I0824 02:02:46.433756 115696 net.cpp:141] Memory required for data: 327942400
I0824 02:02:46.433759 115696 layer_factory.hpp:77] Creating layer global_avg_pool
I0824 02:02:46.433766 115696 net.cpp:88] Creating Layer global_avg_pool
I0824 02:02:46.433770 115696 net.cpp:410] global_avg_pool <- group2_block2_sum_debug_auto_in
I0824 02:02:46.433775 115696 net.cpp:384] global_avg_pool -> global_avg_pool
I0824 02:02:46.433784 115696 net.cpp:126] Setting up global_avg_pool
I0824 02:02:46.433789 115696 net.cpp:133] Top shape: 64 4 1 1 16 (4096)
I0824 02:02:46.433792 115696 net.cpp:141] Memory required for data: 327958784
I0824 02:02:46.433795 115696 layer_factory.hpp:77] Creating layer 
I0824 02:02:46.433799 115696 net.cpp:88] Creating Layer 
I0824 02:02:46.433804 115696 net.cpp:410]  <- global_avg_pool
I0824 02:02:46.433807 115696 net.cpp:384]  -> global_avg_pool_debug_auto_out
I0824 02:02:46.433813 115696 net.cpp:126] Setting up 
I0824 02:02:46.433818 115696 net.cpp:133] Top shape: 64 64 1 1 (4096)
I0824 02:02:46.433822 115696 net.cpp:141] Memory required for data: 327975168
I0824 02:02:46.433825 115696 layer_factory.hpp:77] Creating layer fc
I0824 02:02:46.433833 115696 net.cpp:88] Creating Layer fc
I0824 02:02:46.433836 115696 net.cpp:410] fc <- global_avg_pool_debug_auto_out
I0824 02:02:46.433841 115696 net.cpp:384] fc -> fc
I0824 02:02:46.433872 115696 net.cpp:126] Setting up fc
I0824 02:02:46.433876 115696 net.cpp:133] Top shape: 64 10 (640)
I0824 02:02:46.433881 115696 net.cpp:141] Memory required for data: 327977728
I0824 02:02:46.433885 115696 layer_factory.hpp:77] Creating layer loss
I0824 02:02:46.433889 115696 net.cpp:88] Creating Layer loss
I0824 02:02:46.433892 115696 net.cpp:410] loss <- fc
I0824 02:02:46.433897 115696 net.cpp:410] loss <- label
I0824 02:02:46.433902 115696 net.cpp:384] loss -> loss
I0824 02:02:46.433909 115696 layer_factory.hpp:77] Creating layer loss
…
